A2C/best_a2c_model.pt (torch, 27028 bytes, 7 tensors)

layer1.weight f4 [256, 8]
000000 89 29 20 bd fb ad 81 3e a0 79 b8 be ce 61 2b 3f
       -0.03910211 0.2532805 -0.36030293 0.66946113
000010 5a fd 8e be e8 f5 ef 3d dd 97 dc 3e f3 f7 a0 3e
       -0.27927667 0.11716825 0.43084612 0.3143917
000020 d5 e9 23 3e 2e 52 6d be e9 29 90 3d 20 99 23 3f
       0.16007169 -0.2317588 0.07039244 0.63905525
000030 87 35 67 be 26 66 c3 3d f9 52 54 3d f8 dd ae 3e
       -0.22579013 0.09540968 0.05183694 0.34153724
000040 9d 4d a5 3d 37 69 a7 be 31 40 5d bc ac bb a4 bb
       0.08071444 -0.3269746 -0.013504074 -0.005027255
000050 c3 8b b1 be ca e5 83 3e ea ae 78 3e 04 47 c9 3e
       -0.34676942 0.25761253 0.24285474 0.39311993
000060 6c d6 b0 be 2b f6 a0 be f7 a0 cb be 7d c5 e0 3e
       -0.3453859 -0.3143781 -0.39771244 0.43900672
000070 c3 98 b8 3e f1 d9 1b be 8d 1f e4 bd a8 29 0c 3e
       0.36054048 -0.15219857 -0.1113883 0.13687766
000080 f8 99 25 3e 67 bd 0d 3d d2 d9 5b bd 8a 64 0b 3f
       0.16172016 0.034604456 -0.053674527 0.54450285
000090 13 b2 35 3d d8 c5 22 3e 7b ba ed 3e 88 78 01 3f
       0.044359278 0.15895784 0.46431336 0.5057454
0000a0 ca 9b 4e 3d 07 20 64 3e 8e 87 91 bc 3f 87 d3 3e
       0.05044154 0.22277842 -0.017764833 0.41314122
0000b0 ab e3 01 be 9e 58 11 3e e1 ad fc 3d 6b 25 65 3d
       -0.12684505 0.14193961 0.12337852 0.055943888
0000c0 b9 92 c9 be b6 bc 81 3b 3d 26 80 be 4d cb 9c be
       -0.39369753 0.0039592637 -0.25029173 -0.30623856
0000d0 c4 5c 1d 3f 66 88 e0 3e 89 e6 a2 be 17 21 ee 3d
       0.61469674 0.43854064 -0.3181651 0.11627405
0000e0 89 62 1e 3e 6e 3b 9a be df ca 78 bb e1 5f 06 3b
       0.15467276 -0.30123466 -0.0037962717 0.0020503926
0000f0 7b 5f 40 be fb 85 5a be 65 c3 40 be fa 0f 8a bc
       -0.18786423 -0.21340172 -0.18824537 -0.016853321
000100 ac 91 1d be 3f 9e 61 be 3d 24 f1 bd b6 1f f2 bc
       -0.153876 -0.22033022 -0.1177449 -0.029556137
000110 0f a2 8a be 43 c6 6f be ee 4b 01 3f 77 5e 01 3f
       -0.27076766 -0.23415475 0.50506485 0.50534767
000120 87 16 0e 3d 72 f4 0a 3e e8 6b 7c be 91 fe ac 3e
       0.034689452 0.13569811 -0.24650538 0.3378797
000130 b7 f5 10 bd 94 3d d6 bd c2 ca c2 bd db f7 95 be
       -0.035390582 -0.10460964 -0.09511329 -0.2929066
000140 cf af 87 3e 5e 61 40 3b 00 32 7c 3c 06 25 03 bf
       0.2650132 0.002935491 0.01539278 -0.5122837
000150 78 d2 1a be 7f e1 20 3d 00 fe 0d be 9d a5 7b 3e
       -0.1511935 0.03927755 -0.13866425 0.24574895
000160 10 09 43 bd fc ee ed 3d 64 5f b3 3c 03 54 b3 ba
       -0.047616065 0.11617848 0.021896072 -0.0013681654
000170 e6 00 af 3d a6 a6 dd be 84 79 f1 3e 70 33 90 be
       0.08545093 -0.43291205 0.47163022 -0.28164244
000180 7e dc 8e bd d9 e0 7c be 2c f4 9c bd f3 33 0c bf
       -0.06975649 -0.24695148 -0.076637596 -0.5476677
000190 b2 e5 1f be 46 d0 5e be fe 4e 11 be 28 20 33 be
       -0.15614966 -0.21759138 -0.1419029 -0.17492735
0001a0 88 b8 70 3e 10 a7 13 3e 91 d5 92 be ba fc 1b 3f
       0.23507893 0.14419198 -0.28678563 0.60932505
0001b0 6d ac 65 3e f0 0f ca bd 0e e2 64 3d 3b a5 ca bc
       0.22429056 -0.09866321 0.055879645 -0.024736991
0001c0 14 32 ab be f7 3c 05 3d b8 76 34 ba 6a 63 13 be
       -0.33436644 0.032528844 -0.00068841456 -0.14393392
0001d0 8c e9 d8 be f9 d2 83 3e 8a 13 b1 3e 4e f6 d1 be
       -0.42365682 0.25746897 0.3458522 -0.41008228
0001e0 1d 83 b1 bd 2a e6 a5 bd b7 0e db 3e 8b e6 8e 3e
       -0.08667586 -0.08100541 0.42784664 0.27910265
0001f0 98 b6 12 bf d8 65 0c bd 0e 2c a3 be 20 fc 97 bd
       -0.57309866 -0.034276813 -0.3186955 -0.07421136
000200 54 cb 4e 3e 05 59 47 be 28 88 5b 3d dc 54 f0 be
       0.20194751 -0.19467552 0.053596646 -0.46939743
000210 e2 b7 e9 3e a3 4a dc bc 2a 20 d0 3c be af 37 bd
       0.45648104 -0.026891058 0.025405962 -0.044845335
000220 a0 19 93 3e 97 6e 53 bd d2 b7 d6 3e 32 36 93 3e
       0.28730488 -0.05161914 0.4193712 0.28752285
000230 98 18 bb be 25 f8 30 be 0b ea c4 be 1f a3 1a 3e
       -0.365422 -0.1728216 -0.3845981 0.15101288
000240 66 4f 6d 3e d7 ea 91 3e f7 8c c6 bd b5 b0 8a be
       0.2317482 0.2849948 -0.09694856 -0.27087942
000250 b7 56 4d 3e 59 78 ad 3e fe b0 21 3e ba 1e e4 be
       0.2005261 0.3388088 0.15790173 -0.44554693
000260 8f 31 cc bd 4d a5 2c 3e bd 1c 94 be 82 ee a3 3d
       -0.0997039 0.16859932 -0.28928176 0.08004476
000270 91 e9 1d 3f 52 95 00 3e 45 b8 e3 bd 8d ef 34 be
       0.6168452 0.12556961 -0.11119131 -0.17669506
000280 16 db 9f bd 96 c6 8e 3e e3 00 ba 3c bb b2 c9 3d
       -0.07805459 0.27885884 0.022705501 0.09848543
000290 4b 35 96 3c 75 14 85 be 43 9e 50 be 47 ed ea bd
       0.018335959 -0.2599217 -0.20372872 -0.11471038
0002a0 16 6d d8 bd dc 58 46 be fc 92 8e 3c fa 6c 14 3f
       -0.105676815 -0.19369835 0.017404072 0.57978785
0002b0 a1 16 98 be 10 a5 73 bd a7 7f b8 3e f1 22 eb 3e
       -0.29704764 -0.059483588 0.3603489 0.45925096
0002c0 66 a9 62 bd 0e 31 30 3e e0 7b 88 bc 01 3a f4 be
       -0.055337332 0.17206213 -0.01666063 -0.47700503
0002d0 82 90 d0 3e 23 ee 7d be 9b 10 29 bd 65 35 26 3d
       0.4073525 -0.24797873 -0.0412756 0.040578265
0002e0 71 cd b6 3e 3b 58 36 be 34 3d 04 3f 25 55 81 3e
       0.35703614 -0.17807095 0.5165589 0.25260273
0002f0 ad 0f 16 bf b5 cf 0e 3e dd 30 67 3e 8b e1 18 be
       -0.5861767 0.13946421 0.22577234 -0.14929788
000300 c4 14 6c be bf d1 6d 3e 3e ad b6 3e 36 97 89 bd
       -0.23054796 0.23224543 0.35679048 -0.06718294
000310 5c 8b d4 be 66 b8 17 bf 31 d3 fa 3d 6e cd 3e be
       -0.41512573 -0.59265745 0.12247313 -0.18633053
000320 54 52 16 3d dd 6e 9c 3e 86 90 05 be a7 6c a9 3e
       0.036699608 0.30553332 -0.13043413 0.33090708
000330 36 6d ff 3c c0 a1 c3 3e 22 c6 8d be f2 91 f2 bd
       0.031180006 0.38209343 -0.27690226 -0.11844243
000340 8a 17 c1 3d b7 86 3a 3e 44 29 a6 bc cb 87 5a 3e
       0.09428318 0.18215452 -0.020283349 0.21340863
000350 05 35 ac 3d c9 a1 71 bd 6f fc 67 3e aa 4e 06 be
       0.0840855 -0.05899218 0.2265489 -0.13115945
000360 49 dd 9d 3b cb b7 07 be 92 87 81 be 33 d4 e3 be
       0.004817639 -0.13253705 -0.25298744 -0.44497833
000370 05 4f 95 be 75 6f 09 3e 46 5d 33 be df 43 a8 3e
       -0.2916185 0.13421424 -0.1751605 0.32864282
000380 ff 90 b2 bd a3 84 5f 3e 16 d1 8d be 7d 46 aa 3e
       -0.08719062 0.2182794 -0.27698582 0.33256903
000390 96 19 70 3e 92 fb 93 3d 5c 0e 68 be a5 c2 3f be
       0.2344726 0.072257176 -0.22661728 -0.18726595
0003a0 9d 03 80 be c2 2e a8 bd e9 3d ec bd 8b e8 cf be
       -0.25002757 -0.08212043 -0.11535246 -0.40607104
0003b0 5b 42 8e 3e cb 55 88 be 27 1a 00 3f 6d fd ae 3e
       0.27785 -0.26627955 0.50039905 0.34177724
0003c0 be f3 f3 bd c8 b4 d5 bd eb 6f 8e 3e 83 2c 97 be
       -0.119117245 -0.10434872 0.27819762 -0.29526147
0003d0 25 4b 07 3f 11 fa f3 be 2f 9a 9a be fa 39 3e 3e
       0.52849036 -0.47651723 -0.30195758 0.18576804
0003e0 8a c2 80 3e 88 8e 89 be 07 d8 5b be 49 09 0a 3e
       0.25148422 -0.26866555 -0.21469127 0.13480105
0003f0 7e 02 39 3d 62 c4 6b 3e c6 e0 79 be a0 e5 a1 be
       0.045168392 0.23024133 -0.2440215 -0.31620502

layer1.bias f4 [256]
000000 f2 d7 9b 3e db e9 2d 3e 69 16 33 3d bd 7d 60 3e
       0.3043819 0.1698374 0.043722544 0.21922965
000010 bc fa 86 3e 89 3e 31 3e 6a 3f 85 3d 82 52 b1 be
       0.2636317 0.17309012 0.06506236 -0.3463326
000020 01 b0 46 3e fe f9 bc be bc 48 b0 3d e9 4b 65 be
       0.19403078 -0.3690948 0.08607623 -0.22392239
000030 76 46 a8 3e 69 bc 6d 3e 2b fe 2c bd 90 4f b8 3e
       0.32866257 0.23216404 -0.04223458 0.359982
000040 7d 02 68 3e 50 46 98 3e 20 38 8f 3e bb fe a4 3d
       0.22657199 0.29741144 0.27972507 0.080563985
000050 57 46 29 bd 1f 1c 55 be 34 ce 83 3d 18 59 9f 3e
       -0.041326847 -0.20811509 0.064358145 0.3112266
000060 1b 29 55 bc 3e 6a 8f 3e 39 9b 97 be ee 0d 60 3e
       -0.013010289 0.28010744 -0.29610613 0.21880314
000070 81 75 7f 3e 48 ba f9 3c c5 a4 e5 3d 1f df c7 be
       0.24947168 0.030484334 0.11213068 -0.39037415
000080 e2 79 de 3d 03 ce 2e 3e 3c 27 d5 3d f1 ca 69 3e
       0.10863091 0.17070775 0.10407874 0.22831322
000090 26 88 27 3d 20 ab 83 3d 0e 2d 3b 3e bc 51 9c 3d
       0.040901326 0.06429124 0.18278906 0.07632777
0000a0 4b 1b 7b be 5d 8e 80 3d 27 63 7c be ea 04 d5 bd
       -0.2452213 0.06277154 -0.24647199 -0.10401328
0000b0 96 ef 87 3d 23 85 68 3d 10 cd 09 be 86 2e b9 be
       0.06637494 0.056767594 -0.13457131 -0.36168307
0000c0 8e 9d 69 bb 57 42 08 3e 19 e8 bc 3d a4 af 8e 3e
       -0.0035646888 0.13306557 0.092239566 0.27868378
0000d0 57 b1 a2 be 45 2f 87 be b2 66 7d be 53 3e 4f 3e
       -0.31775925 -0.2640325 -0.24746206 0.20238619
0000e0 bb c4 b9 3e 70 df 95 bd 05 a6 e1 3d 0d 92 74 3e
       0.36282906 -0.07318008 0.11017994 0.23883839
0000f0 24 2f 98 3d b6 d4 44 3e b9 53 87 be 36 58 99 be
       0.07430866 0.19221768 -0.26431063 -0.29950112
000100 14 db 51 be d9 11 20 3e 1a 53 75 bd 7c 03 ab bd
       -0.20493728 0.15631808 -0.059893705 -0.08350274
000110 58 7e d0 3d 6e f2 a2 3e 17 69 54 3e fe 09 fc 3d
       0.10180348 0.31825584 0.20743214 0.12306593
000120 2d 24 d8 3d 1a d4 46 be 0d 60 b9 3e b1 10 04 3e
       0.10553775 -0.19416848 0.36206093 0.12896992
000130 17 c8 f9 3d 9c 35 3b bd 40 3d d1 3d e5 85 76 3e
       0.12196367 -0.045705423 0.10216761 0.24074514
000140 7c 76 9e 3e 7b a6 ab 3c e2 e9 76 3e 1c bc 81 be
       0.3094977 0.020953408 0.24112657 -0.2533883
000150 7e 86 97 bc da ca 83 3e fb 60 24 3e e9 b3 9a 3e
       -0.018496748 0.257407 0.1605262 0.30215386
000160 d2 fc a4 3e c4 75 71 3e 2a a7 3e bd 40 5a b7 3d
       0.32224137 0.2358008 -0.04654614 0.08952761
000170 d2 51 90 bd f1 e2 44 3e 96 64 ca 3e fa 0f 27 3d
       -0.07046856 0.19227196 0.39529866 0.04078672
000180 d7 5b 54 bb bd 4d 1d 3e 9e 75 e3 3d d7 57 4f 3e
       -0.0032403374 0.15361686 0.11106418 0.20248352
000190 1e 3e 26 be 52 e9 96 bd a8 a4 40 be 4e 26 91 3e
       -0.16234633 -0.07368721 -0.18812811 0.28349537
0001a0 66 cf 3d 3e 08 cd 6b 3e 04 15 29 3e 54 9e c9 3d
       0.18536147 0.23027432 0.16511923 0.09844652
0001b0 7c ca 2a 3e a4 5d d2 3d a5 21 23 3e 7e 10 fc 3c
       0.16678804 0.10271767 0.15930803 0.030769583
0001c0 c4 94 7c be ba 1d 41 3c f3 47 65 3e 46 a9 b7 be
       -0.24666125 0.0117868725 0.22390728 -0.35871333
0001d0 cb 7d fd bd af 3b 3a 3e 90 1d f6 3d 8a 09 17 3e
       -0.12377509 0.1818683 0.12017357 0.14749733
0001e0 f1 1a 4a 3e 71 53 0c be dd d1 b1 3e 49 99 31 be
       0.1973684 -0.13703705 0.34730425 -0.1734363
0001f0 00 69 33 3e 31 0d a6 bc 18 e7 84 3e a5 6c dd bc
       0.17520523 -0.020269962 0.2595756 -0.027029345
000200 69 1c 2d be fe b6 9b 3e 32 9c a7 3d d9 55 81 be
       -0.16905369 0.3041305 0.08184089 -0.2526081
000210 cb d1 6b 3e cd f1 9f 3d 24 5a eb 3d f1 da b1 3e
       0.23029248 0.07809792 0.11491802 0.34737352
000220 db 9b 92 be e0 cd 8a 3e 70 c6 8f 3d fb ae ab 3e
       -0.28634533 0.27110195 0.07020271 0.33531937
000230 37 84 92 3e bf b8 34 bc 3b 49 bf bd 8c 5e 57 3e
       0.28616497 -0.011030375 -0.093401395 0.2103216
000240 0c c1 a7 3e 64 0b 9e 3e 4e 67 85 bc e7 6a 28 3e
       0.3276447 0.30868065 -0.016284611 0.1644703
000250 2a 5c ce 3e c0 18 79 be 0f fa 27 3d 7c cf 38 be
       0.4030469 -0.24325848 0.04100996 -0.18047899
000260 1e 54 a3 bd fe 75 c5 bd 6f e2 82 3d b9 c4 7f bd
       -0.079750285 -0.09641646 0.06390845 -0.06244347
000270 8a 2a 86 3e 3b dd 5f be 92 8d 87 be 4d 86 5f be
       0.2620433 -0.21861736 -0.26475197 -0.21828575
000280 1b f7 c5 3d 0c 2d 65 be e3 95 5a 3e 20 b7 95 3d
       0.09666272 -0.22380465 0.2134624 0.07310319
000290 d8 c5 ab 3e 22 8f 04 be 0c c9 58 3e 85 57 8b 3e
       0.3354938 -0.12945226 0.21170443 0.2721521
0002a0 89 61 4b 3e 38 b4 3a bd 9f c8 de 3d 37 47 ae 3e
       0.19861425 -0.045582026 0.10878109 0.34038708
0002b0 38 ec 95 3e 0f bf 9b bd e1 a1 22 3d 5a 2b 7c 3d
       0.29281783 -0.07604801 0.03970516 0.06156478
0002c0 98 28 dc 3d 36 7f 03 be 6d 47 22 be 23 e8 eb bd
       0.1074993 -0.12841496 -0.1584756 -0.11518886
0002d0 83 c0 6a be 07 b2 89 3e 0b 08 ca 3d 8f a9 27 3e
       -0.22925 0.26893637 0.09864815 0.16373275
0002e0 33 09 81 3d 5c 84 80 3e f5 57 4b 3d 45 43 11 3d
       0.06300583 0.25100982 0.04964443 0.035464544
0002f0 90 62 91 3d bd b6 87 be 5a aa 50 bd cd 28 87 3e
       0.070988774 -0.26506606 -0.05094371 0.26398316
000300 24 e1 53 3e f3 dc 2a be f3 83 1e 3e fc 04 95 3e
       0.20691353 -0.16685848 0.15480022 0.29105365
000310 b6 b9 5d 3e dc 6e 8c be 1e 96 0c 3e 8d c5 69 3e
       0.21652874 -0.2742833 0.1372914 0.22829266
000320 61 a5 a6 3d 06 8d 47 3e 75 0b 1a 3e 41 35 5b 3e
       0.08137012 0.1948739 0.15043433 0.21407034
000330 ad 87 a3 bd 3b be 09 3d 82 8d b3 be 6a 06 7d 3b
       -0.079848625 0.033628684 -0.350689 0.003860856
000340 b5 44 8c 3e fa 0f 64 3e ce 79 75 3e 6e cb c5 be
       0.2739617 0.2227172 0.23972246 -0.38631767
000350 3c df b8 3e 48 8d 38 be 1a 66 12 3e 22 bf 91 bd
       0.36107814 -0.18022645 0.14296761 -0.07116534
000360 70 fc b9 3d 55 eb 8a 3c 98 f7 f4 3d fc fa fb 3d
       0.09081352 0.016957918 0.11961287 0.12303731
000370 bf 71 5c 3e eb 5c 54 3e a5 a7 98 be 4a 53 30 3e
       0.21527766 0.2073857 -0.29815403 0.17219272
000380 a2 b5 b9 3d 7e d1 97 3e 99 7d 87 bc af 9d 3f bc
       0.09067847 0.29652017 -0.016539382 -0.01169531
000390 da e4 7a be 81 45 c6 3b 7e 8b ef 3d b2 3d 99 3e
       -0.24501362 0.006050766 0.11696528 0.29929882
0003a0 60 e1 b4 be a1 a1 07 3e 25 6d fa 3d 0c b2 c0 ba
       -0.35328197 0.1324525 0.12227849 -0.00147015
0003b0 bc 5b c4 bd c2 fc 27 3e ba 12 87 3d 14 91 53 3e
       -0.095878094 0.16405013 0.06595369 0.20660812
0003c0 56 9e e6 bc 0b 8b 40 be b0 cf b4 3e b6 97 3f 3e
       -0.028151672 -0.1880304 0.35314703 0.18710217
0003d0 63 f1 87 3e 3b e0 48 3e a0 4d 13 3e 51 af 24 be
       0.2655135 0.19616787 0.1438508 -0.16082503
0003e0 bb 5f 13 be fc 19 90 3e 1a b2 9c 3e 71 c7 89 be
       -0.14391987 0.28144825 0.3060463 -0.26909974
0003f0 08 fd 50 3e 30 5a b1 3e cf 04 f7 3d e8 a9 2e bb
       0.20409024 0.3463912 0.12061464 -0.0026651565

layer2.weight f4 [4, 256]
000000 66 a0 21 3e c8 20 48 3e cd d6 e8 3d 79 03 4a bb
       0.15783843 0.19543755 0.11369095 -0.0030824824
000010 26 ee 2e 3e c1 39 3c 3d 08 c1 b8 bd 31 b0 db 3c
       0.17083034 0.045953516 -0.09021193 0.026817413
000020 28 7d 2b 3e 93 b3 90 3c 93 a3 d2 bd 80 79 3d be
       0.16746962 0.017663753 -0.102851056 -0.1850338
000030 32 7c 23 be b6 f1 e3 3d 18 cc 95 bd cc 72 9d bd
       -0.15965346 0.11130087 -0.073143184 -0.076879114
000040 f2 fc 9e bd 79 ea dc bc e1 ec 0a be 28 09 8f bd
       -0.07763089 -0.026967274 -0.13566925 -0.06984168
000050 c8 58 70 3c e5 89 a0 3e ba 6b 1f be 41 a2 6a 3c
       0.014669605 0.31355205 -0.15568438 0.014320911
000060 2a 25 23 bd 58 ca 70 bd 95 17 88 3c 18 70 97 bb
       -0.039830364 -0.05878672 0.016612807 -0.004621517
000070 10 32 94 bd 5d e9 90 3d 6d a4 9c be fd 17 34 3d
       -0.07236111 0.070757605 -0.30594197 0.04396819
000080 b8 ac 55 be 8e 3b a7 3d b9 dd 9c 3d 7a 46 65 be
       -0.20866668 0.08165656 0.07659478 -0.22390166
000090 b3 d3 ce bd b1 83 16 3e 31 4e 87 3e 89 4e 1b be
       -0.10098972 0.14698674 0.26426843 -0.15166678
0000a0 3d 2c 47 be 94 c9 99 3d c7 63 0d be c7 af 15 bd
       -0.1945047 0.07509151 -0.13807593 -0.036544587
0000b0 25 1e 5d bd 73 e1 91 bc 92 6a ac bc a1 c5 41 3b
       -0.053983826 -0.017807698 -0.02104691 0.002956726
0000c0 a0 00 24 be bc fb bd 3d fd 80 ba 3d 12 0e 82 3c
       -0.16015863 0.0927653 0.09106634 0.01587585
0000d0 09 34 b0 bc 0e ef 6b 3b 79 37 f0 bd ab 7d 2c be
       -0.021509187 0.0036000642 -0.117293306 -0.16844814
0000e0 6c f9 d1 bd d2 0c 90 3e da f0 4d 3e a6 31 6f bc
       -0.102526516 0.2813478 0.20111409 -0.014599239
0000f0 88 d1 30 3d 3f 84 12 3d 74 bf 28 bd 67 1a 60 bc
       0.043168575 0.03577065 -0.04119821 -0.01367817
000100 d9 5b 78 bd 71 82 7d bc f2 e6 82 bd 32 09 1d be
       -0.060634468 -0.015472994 -0.063917056 -0.15335539
000110 3b 94 e7 3d 0a 52 a6 bd 3a cd ef 3b 97 c7 24 3a
       0.113075696 -0.081211165 0.007318166 0.0006285845
000120 87 c5 52 be 82 f0 07 bd 97 93 c6 bd 1b 98 2b be
       -0.20583163 -0.03318835 -0.09696119 -0.16757242
000130 64 00 03 be 9c 71 02 be e7 78 89 bb 6c d5 fa 3d
       -0.12793118 -0.12738651 -0.004195321 0.12247738
000140 15 d4 83 bd 12 9d b5 bd ba 0b da 39 16 b9 ad 3d
       -0.06436936 -0.088678494 0.00041588937 0.08482568
000150 3d ea 78 bd 59 e3 13 be 71 a6 30 be 97 c3 36 be
       -0.060770262 -0.14442195 -0.17250992 -0.17848049
000160 a3 ae fd bd 27 d6 43 be b1 83 84 3e fa ee 73 3e
       -0.12386825 -0.19124661 0.25881723 0.23821631
000170 60 ca 09 be 2f 3c 48 3e f0 ef 42 be 36 04 4d 3e
       -0.13456106 0.19554208 -0.19036841 0.20021138
000180 a0 88 49 be 6d de 27 be dd da 50 3e d9 2b 23 3e
       -0.19681025 -0.16393442 0.2039599 0.15934695
000190 43 44 4a bc f3 a4 c8 bc 2a a9 62 3c 29 e9 28 3d
       -0.012345376 -0.024492716 0.013834277 0.041237984
0001a0 f7 70 06 3e e4 8c ee bc 47 36 6a be ec 15 b7 bd
       0.1312903 -0.029119916 -0.22872268 -0.08939728
0001b0 25 5a 78 bd 9e ac 69 bd bc 5a 8c 3d 73 32 e4 3d
       -0.060632844 -0.057049386 0.06853244 0.11142435
0001c0 c6 94 5e bb 1c 1c 88 3c 74 ca 4f ba bc 37 65 3d
       -0.0033963188 0.016614966 -0.0007926591 0.055961356
0001d0 b4 53 b8 bd ad e4 14 3e 0d a7 fd 3d fa cc ca 3d
       -0.0900034 0.14540358 0.12385378 0.099023774
0001e0 c7 6b b6 3d 55 e0 21 be 89 0e 29 3d f5 f4 b9 bd
       0.08907276 -0.15808232 0.041273627 -0.09079925
0001f0 8e e1 01 be a6 df 73 be 5a 63 45 3d 52 41 4a 3d
       -0.12683699 -0.23815784 0.048190452 0.0493787
000200 ac b1 2f be 43 ed 01 be fb 35 2e be 51 7d c4 bd
       -0.1715762 -0.12688164 -0.1701278 -0.09594215
000210 81 c9 6f 3e 4b 11 95 bd 9f 1d 10 be 03 07 54 bb
       0.23416711 -0.07278689 -0.140738 -0.0032352812
000220 f9 0e 87 bc 04 7c cd bc 1e b9 92 bd 46 5d 33 3c
       -0.016486632 -0.02508355 -0.071642146 0.010947531
000230 e1 6b d5 bd 08 7d 16 be 1c 83 d8 bd ad 01 f0 bd
       -0.10420967 -0.14696133 -0.10571882 -0.1171907
000240 60 b8 0a 3d 38 c8 1e 3d 1f 25 96 bd 22 e8 0b 3e
       0.03386724 0.038765162 -0.07331299 0.1366277
000250 1f a6 1f be 83 30 94 3d 10 54 8a 3e 76 c0 40 be
       -0.15590714 0.072358154 0.2701726 -0.18823418
000260 4f d6 29 be 6e 8f 89 bd c8 c1 cc bc 6c d3 58 3d
       -0.16585658 -0.0671681 -0.024994746 0.052936003
000270 08 07 ef 3d a0 55 90 bd ba d0 54 bd 11 4b 20 3d
       0.11671263 -0.07047582 -0.05195687 0.03913409
000280 66 e6 4e bd d9 ea 3c 3d 6a d8 7d 3d db 21 07 3e
       -0.050512694 0.046122406 0.061973967 0.13196509
000290 09 43 3c be b1 79 18 3e 84 fd 3c bd 36 26 59 be
       -0.18384947 0.14890172 -0.04614021 -0.21205983
0002a0 83 86 a5 bd f2 dd b4 39 5c f1 24 3e 2a 20 25 3e
       -0.08082297 0.00034497638 0.16107696 0.16125551
0002b0 01 76 30 bd af 38 c3 bd df 35 2b bd 4f ce 10 be
       -0.043081287 -0.09532296 -0.041799422 -0.141412
0002c0 0a 70 47 be f0 f9 88 be a6 08 80 3e 27 1c 31 3c
       -0.19476333 -0.26753187 0.25006598 0.010809935
0002d0 60 a7 5d 3c 7c 0e 7f 3d 7c 64 12 be f9 79 33 be
       0.013528675 0.062269673 -0.14296144 -0.17526998
0002e0 54 8e bf 3d 34 78 ab 3d 48 32 4c bc 3b 12 0f be
       0.09353319 0.08372536 -0.01246316 -0.13971798
0002f0 aa 09 4b bd 48 64 8a 3e a6 99 2d bd 72 9d 41 be
       -0.049569763 0.27029634 -0.04238286 -0.18907717
000300 96 c0 3b bc a8 52 fc 3a 9b e6 e9 bd 29 a3 ea bc
       -0.01145949 0.0019250708 -0.11420938 -0.028642254
000310 ab f4 1d bd e0 23 0e bd 18 5b 92 bd ac 2a a9 bd
       -0.03856341 -0.03470218 -0.07146281 -0.08260092
000320 3c af c6 bc e5 42 22 bd e5 28 48 3e 92 31 ab 3d
       -0.02425348 -0.039614577 0.1954685 0.08359064
000330 2b 5e 91 3e f2 e9 83 bd 69 27 5a bd fb 11 d9 bd
       0.28392157 -0.06441106 -0.05326024 -0.105991326
000340 eb 03 8d bd 93 4b a7 bd 55 2a 2f 3e f6 28 54 bd
       -0.06885513 -0.081687115 0.17105992 -0.051796876
000350 c6 88 5b be 84 05 21 be cb a6 f0 bd 39 9e 0d 3d
       -0.21438894 -0.1572476 -0.11750563 0.03457472
000360 af 07 86 bc bb b1 6e 3d 5c 21 fe 3d 63 a3 fc 3c
       -0.016361086 0.058274966 0.124087065 0.030839628
000370 32 94 d8 bc f0 c7 3d 3e 43 6e 5c 3d 69 e3 9f 3d
       -0.026437853 0.18533301 0.05381609 0.07807047
000380 66 9f 18 3e c0 85 02 be 01 04 27 be 40 d5 49 3e
       0.14904556 -0.12746334 -0.16310121 0.19710255
000390 14 ae aa 3d 04 ec 1f be e2 24 36 bc 79 47 99 3d
       0.08333984 -0.15617377 -0.011117192 0.074843355
0003a0 bc be f6 3c 79 fe b1 bd 71 43 9b bb 15 bc b0 bd
       0.030120246 -0.08691115 -0.0047382643 -0.08629624
0003b0 48 a3 5f 3d db 46 d3 3d 2b 0e cf 3d cd b2 95 bc
       0.054599077 0.10316249 0.10110124 -0.018273735
0003c0 b7 18 fb 3d db d5 76 3d 53 6d 37 be d9 b1 30 be
       0.12260573 0.060262542 -0.17912798 -0.17255343
0003d0 de 95 83 bd e8 64 33 bc 6d 89 f8 bd a0 44 9a bd
       -0.06425069 -0.010949351 -0.12135587 -0.075326204
0003e0 dc b6 50 bd fd 00 40 bd cf 52 32 be 48 de cd bd
       -0.05095564 -0.046875942 -0.17414401 -0.100521624
0003f0 8e 7a 1e 3b b0 d8 72 bd a1 36 56 3e cf 6e ab bd
       0.0024181935 -0.05928868 0.20919277 -0.083707444

layer2.bias f4 [4]
000000 8c 27 9f 3c fd 51 e5 3c 03 f6 23 3b cc 67 f5 3c
       0.019428037 0.027993197 0.002501846 0.02995672

input_layer.weight f4 [256, 8]
000000 b3 e2 82 bd 0f 92 cc 3c 29 17 1d 3e 61 4b fd be
       -0.06390896 0.02497199 0.15340866 -0.49471572
000010 27 90 93 be 5c f6 32 3e 43 4f fb be 55 7f a2 bc
       -0.28820917 0.17476791 -0.4908391 -0.019836107
000020 60 3c 86 3d 27 18 6b 3e 35 70 8b 3e 6a 6a 7e 3e
       0.06554484 0.22958432 0.27234045 0.24845281
000030 a1 58 a9 be 63 29 30 be 73 5e 1f 3e b8 5c 08 bd
       -0.3307543 -0.17203288 0.15563373 -0.03329155
000040 f7 b8 a5 be a1 7b be bd cc 06 8b be a1 a8 13 3e
       -0.3236768 -0.09300924 -0.27153623 0.14419796
000050 09 e3 a3 bd 18 64 98 be a4 81 c2 3e f5 5a 23 be
       -0.08002288 -0.29763865 0.37989533 -0.15952666
000060 03 36 df ba 84 02 23 3d d3 53 c9 bc 25 2b bd be
       -0.0017029647 0.03979732 -0.024576103 -0.3694698
000070 96 39 8a bc b2 b7 cd 3e 32 88 87 3e 75 10 ae 3e
       -0.016873162 0.4017921 0.26471096 0.3399693
000080 0d f5 94 3e 4b c9 46 bd cb 08 fe 3c 77 8f 7a 3e
       0.2909321 -0.04853181 0.031010052 0.2446879
000090 a3 3e 4d 3d e9 a6 ca 3e 07 e5 21 3e 57 da 9f 3d
       0.050108563 0.39580467 0.15810023 0.07805317
0000a0 62 ab 6f 3c 0b e3 8e bd b6 77 02 3f 0e 06 39 be
       0.014628263 -0.06976899 0.50963914 -0.18068716
0000b0 f8 16 41 be d8 35 48 bf 35 f0 d1 3d 24 fd 3a 3e
       -0.18856418 -0.7820716 0.10250894 0.18260628
0000c0 7a 7d c7 3e 20 0a 07 3e 00 de a2 bd 5a 59 d5 bd
       0.3896292 0.13187456 -0.079524994 -0.10417433
0000d0 46 6d 25 3f a5 f5 f5 3c 41 6a 96 3d 4c d2 ff 3c
       0.64619863 0.030024359 0.07344485 0.031228207
0000e0 ef 17 01 bd 1a 31 2b bf 99 0b 3d 3e 53 ef 17 3f
       -0.031516965 -0.668718 0.18461455 0.59349555
0000f0 20 61 24 bd d3 d5 07 be 7d 15 16 be 79 b6 22 3e
       -0.040131688 -0.13265161 -0.14656635 0.1588992
000100 15 67 80 3d 3e 7f 66 3e 09 4b f3 bd 0c dd 2c be
       0.06269661 0.22509477 -0.11879546 -0.16881198
000110 cf ef da bd bf df 5e be e4 8f 0e 3e ed 1f d8 be
       -0.10690271 -0.2176504 0.13922077 -0.42211857
000120 1f 9f bf 3d bc 07 be be dc 4e af be fc 90 81 3c
       0.09356522 -0.37115276 -0.34239852 0.015816204
000130 f9 dd a3 bc ee 2d c9 bd 32 61 34 be 19 4f 08 be
       -0.020003306 -0.098232135 -0.17615202 -0.13311423
000140 f8 48 c4 3e 69 eb 68 be bc a7 8a 3e d4 73 b3 be
       0.3833692 -0.22746052 0.27081096 -0.35049307
000150 ef 10 a7 3d fe 6a c4 3d 14 ff 61 3e d8 2c 08 3d
       0.08157527 0.0959072 0.22069961 0.03324589
000160 19 86 aa 3e 4f bd 88 be e2 5e 51 be ba c5 6f be
       0.33305433 -0.2670693 -0.20446351 -0.2341527
000170 60 35 55 bc e5 08 b0 3c 3c 46 c0 3e ae 83 ad 3e
       -0.013013214 0.021488616 0.37553585 0.33889526
000180 96 fb 76 3d 05 82 5d bd 5c f5 75 3e 79 dd f7 bd
       0.060298525 -0.054079074 0.24019378 -0.121027894
000190 a6 de 04 3e 8e 7c b7 3e 3b cf 82 3d be eb e8 3c
       0.12975559 0.35837215 0.06387182 0.028432723
0001a0 5c 2d 50 3d d2 3a ff 3d 24 92 c9 be e6 ea cf be
       0.050824508 0.12462391 -0.3936931 -0.406089
0001b0 1f 7a 22 3d 2c f8 2e bd 51 b2 db bc 9b 75 77 be
       0.039667245 -0.042717144 -0.026818426 -0.24165957
0001c0 15 c5 6d 3d bf 83 98 3e bd ba c1 3d 57 6e 6b be
       0.05804928 0.29788014 0.094594456 -0.2299131
0001d0 67 28 24 3e dd 55 06 3d a4 75 c8 3e e7 33 dc 3c
       0.16031037 0.03279673 0.39152253 0.026880218
0001e0 70 ee 51 3e 7d fa bd 3d 6a 65 1a 3e 49 fc 0a 3e
       0.20501113 0.092762925 0.15077749 0.13572802
0001f0 06 34 19 3e 97 1a 15 3e 7c 88 2e 3e 5c 4b a7 be
       0.14961252 0.14560924 0.17044252 -0.32674682
000200 1d 86 05 3f ae 70 98 3e 4c 76 c7 3e 6a dc 9c 3e
       0.52157766 0.29773468 0.3895744 0.30636913
000210 19 2c c7 be 22 3b 32 bf 47 c0 04 3e 63 5c 10 be
       -0.3890083 -0.6962148 0.12963973 -0.14097743
000220 9d 7b 27 bc f8 fb 43 3e de aa 62 3e 55 49 2a bd
       -0.010222343 0.19139087 0.22135493 -0.04157384
000230 d7 f5 a7 3e ef 80 6d 3d 5f e7 1d 3e 82 62 55 3e
       0.32804748 0.05798429 0.15420292 0.20838359
000240 ba ea ed be cd 06 a7 3d 0a 92 10 be 0c 36 ad 3e
       -0.46468145 0.08155594 -0.1411821 0.33830297
000250 00 ae 00 3e 85 27 b6 be e1 e6 43 be ba 42 98 3e
       0.12566376 -0.35577026 -0.19131042 0.29738408
000260 35 d7 b2 be 98 95 8c be 03 f5 e1 bd 56 5d 8e 3e
       -0.34929815 -0.2745788 -0.110330604 0.27805585
000270 96 2e 4b 3e 23 98 27 3e bb 22 de bc b9 9d 4f be
       0.1984199 0.1636663 -0.02711617 -0.2027501
000280 37 45 16 be 4f 41 8c 3e da d5 59 be 5e fd 52 3e
       -0.14674841 0.27393577 -0.21272984 0.20604464
000290 63 6d b6 bd 94 9c 21 be d7 2a 4f 3e e7 3b d9 bd
       -0.089075826 -0.15782386 0.20231186 -0.106071286
0002a0 42 ea 86 3e c6 79 46 3e 96 70 be be e4 db 09 3d
       0.263506 0.1938239 -0.3719527 0.03365697
0002b0 df 2d c2 3e 1c 2e a6 3d 1b ba 13 3e 5f 55 3b be
       0.37925622 0.081142634 0.14426462 -0.18294285
0002c0 f4 d0 bb bd 8a 60 0a 3e 5e 3f 04 bf 88 f9 4f be
       -0.09170714 0.13513389 -0.5165919 -0.20310032
0002d0 1b 3e 83 bf c6 19 67 3d ee f9 95 be d1 0a 83 be
       -1.0253328 0.056421064 -0.29292244 -0.2559419
0002e0 71 28 46 be 23 4c 61 be bd 26 6d 3e 62 f1 6e be
       -0.19351365 -0.220017 0.23159309 -0.23334268
0002f0 7c 95 aa bd 33 d2 fa bc 2e 97 b7 3e f4 b1 ab 3e
       -0.08329293 -0.030617809 0.35857528 0.33534205
000300 cd 8d cd 3c cb a1 11 3e ca 18 34 3e 9d 48 c2 bd
       0.02509203 0.14221875 0.17587581 -0.09486506
000310 0b 97 2a 3b b8 a7 0c bf 9f be 05 be ef 81 08 be
       0.002602997 -0.5494342 -0.13060997 -0.13330816
000320 1d 5e 24 3c ae 4e d6 3e b8 b1 80 3d 88 91 b2 be
       0.010032204 0.41856903 0.06283897 -0.34876657
000330 e4 f0 84 be 97 de 02 3c 4e 41 5c be 59 6f 49 3d
       -0.25965035 0.00798764 -0.21509287 0.049178455
000340 a7 d2 70 bd e0 65 b4 3e a8 bc b9 3d d6 4a 21 be
       -0.058794644 0.35233974 0.090691864 -0.15751204
000350 01 fb e9 bd 8f e5 6c bb e3 9b f5 bd dc 56 ae bd
       -0.11424828 -0.003614757 -0.11992624 -0.08512661
000360 72 74 fa bb a7 73 96 3e 97 85 75 3e bd a6 9c bd
       -0.007643276 0.2938511 0.23976742 -0.0764899
000370 78 37 53 be e6 ab ee be 7e fb ec bd d8 b2 87 be
       -0.20626628 -0.46615523 -0.11571406 -0.26503634
000380 15 08 b2 be b3 70 27 bf f2 15 30 3e 4e b6 a6 3e
       -0.3477179 -0.6540634 0.17195871 0.32560962
000390 a4 0b 90 be ec 75 b9 3e 2c e4 bb 3c 13 cd 25 be
       -0.2813388 0.3622278 0.02293595 -0.16191511
0003a0 a1 d3 a9 3d f9 fa b5 3e e9 5a 45 bd 49 b2 b0 be
       0.08292318 0.3554304 -0.0481824 -0.3451102
0003b0 2a 7c ba be aa f6 f4 3d 54 97 89 bd fa 83 09 be
       -0.36422855 0.1196111 -0.06718317 -0.13429251
0003c0 dd cc 50 bd 7d 47 e5 3d f2 5b a4 3e 27 dd 05 bf
       -0.050976623 0.11195276 0.321014 -0.52290577
0003d0 34 a1 d7 be 5d 7d 4a be 63 e6 81 be 8c ab 72 bd
       -0.42115176 -0.19774385 -0.25371084 -0.05924563
0003e0 c2 29 e7 3b 0c 6c 4b 3e 91 43 a2 3e 8e a5 f8 bd
       0.0070545385 0.19865435 0.31692174 -0.12140952
0003f0 ad 43 8d be dd 1d 19 be 4b da 2a 3d 64 be 8c bd
       -0.27590695 -0.14952798 0.041712087 -0.06872252

input_layer.bias f4 [256]
000000 02 a0 d6 bd 6c cf 6d 3e e4 61 ee 3e 03 a3 92 be
       -0.10479738 0.23223656 0.4655906 -0.28639993
000010 93 1d cc 3e d7 98 94 be e0 fb 5f be 29 59 8f 3e
       0.39866313 -0.29022858 -0.21873426 0.2799771
000020 e6 3e e2 bd f4 89 26 3e b4 0a a5 bd d1 a4 40 3e
       -0.11047153 0.16263562 -0.08058682 0.18812872
000030 74 83 ca 3e e2 b4 28 be 6d 66 4c be d8 06 b3 be
       0.39553416 -0.16475251 -0.19960947 -0.3496616
000040 d3 2b 39 3d 9f 33 f5 3d 2c 71 04 3e 7d 01 c2 bd
       0.04520781 0.119727366 0.12933797 -0.0947294
000050 c8 7e 3b 3e b3 93 79 bd c7 ce 33 be 06 96 0a 3e
       0.18310082 -0.060931873 -0.17559348 0.13533792
000060 6e 89 8c 3e 43 e5 86 be 18 dc 50 be f4 7b c6 3e
       0.274486 -0.26346788 -0.20396459 0.38766444
000070 81 e9 6e 3d 39 6f 66 be 4e 18 38 be d5 36 4a 3e
       0.058328155 -0.22503366 -0.17978022 0.1974748
000080 6e ed 64 3e b6 b1 ad 3d 41 f1 8c be 61 30 19 3e
       0.22356197 0.08481161 -0.27527812 0.14959861
000090 50 fb 62 be 30 af 68 3e 84 d3 86 3e eb d6 ab bd
       -0.2216618 0.22723079 0.2633325 -0.08390602
0000a0 82 7d cb 3d e5 f5 9e bd 3d 4d 15 3c ea 1e 5e bd
       0.09936048 -0.077617444 0.009112653 -0.0542287
0000b0 8f ba b1 3e 9e 29 87 be 30 1e 06 3d 03 18 31 3e
       0.34712645 -0.2639894 0.032743633 0.17294316
0000c0 c4 1e 3c 3e a8 44 d1 be b7 9d 65 be e5 25 85 be
       0.18371111 -0.40872693 -0.22423445 -0.26005474
0000d0 57 f5 6b 3e 56 e1 6c be 49 6c b6 3d a5 05 28 3e
       0.23042808 -0.23132834 0.089073725 0.16408403
0000e0 58 a6 38 be 88 6e b6 3e 79 f1 bb be 61 27 be be
       -0.18032205 0.35631204 -0.36707667 -0.3713942
0000f0 7b 18 63 3e 9e af 85 3e 90 3d 28 3e 7e 2c ad bd
       0.22177307 0.26110548 0.16429734 -0.08455752
000100 77 86 84 3d 46 d5 a3 be b0 e9 8c be 21 e2 7f be
       0.0647096 -0.31998652 -0.2752204 -0.24988605
000110 1d 45 45 be 95 fa 99 be 44 30 dd 3d 67 cf cc be
       -0.19264646 -0.3007399 0.108002216 -0.40001985
000120 a0 ea e4 bd 42 7d b8 3e 4e e2 84 3d 0f cf 1b be
       -0.11177564 0.36033064 0.06488477 -0.15215705
000130 08 89 9e bc 67 34 d6 3d 37 65 69 3e 74 0e ae 3e
       -0.019352451 0.10459214 0.22792517 0.33995402
000140 c3 b9 92 be a1 d8 2c be c6 67 86 be 2c 4f 2b 3e
       -0.2865735 -0.16879512 -0.26251048 0.1672942
000150 5d eb 80 be 0a 31 8e 3e 24 ce 1d be 62 b6 8d bd
       -0.25179568 0.2777179 -0.15410668 -0.069195524
000160 e7 f1 8f be 6c e8 79 be fb 9e 57 be 65 6b a1 3d
       -0.28114244 -0.24405068 -0.2105674 0.07881812
000170 4d 02 3a 3e 46 cf d7 3d e8 22 66 be 37 bb 8e be
       0.1816494 0.10537581 -0.22474253 -0.2787721
000180 b6 09 89 be 43 77 82 bd 08 48 ef 3d 96 b5 a2 be
       -0.2676522 -0.063704036 0.11683661 -0.31779164
000190 7e e9 98 3d e1 91 66 3e 46 3c 2b be 4a d9 be bd
       0.0746641 0.22516586 -0.16722211 -0.09318788
0001a0 ca 95 32 3e 58 9f a7 bd 60 9f ad bd 36 2e 19 be
       0.17439952 -0.08184689 -0.08477664 -0.14959034
0001b0 a8 df 38 3e 41 f9 d1 bd ef 91 95 be 2b 23 7b be
       0.18054068 -0.102526195 -0.292129 -0.24525134
0001c0 8e 1f 31 3e 14 a1 96 3e 9a c0 17 3d 80 dd 64 3e
       0.17297193 0.29419768 0.037048914 0.2235012
0001d0 bd f0 a0 be 21 a4 ad 3e 4b 97 a3 3e b2 17 a5 bd
       -0.3143367 0.33914283 0.31951365 -0.0806116
0001e0 a5 9f 7e 3e d6 5b 64 3e 66 5d 85 3e e6 30 97 bd
       0.24865587 0.22300658 0.2604782 -0.073823735
0001f0 13 91 5c 3e 52 c2 a9 3e 4c 00 a0 3d 1c 78 8e be
       0.21539716 0.33156067 0.078125566 -0.2782601
000200 0b aa 78 be 3a 21 8f be ce 51 a8 3e 8e 7a 52 be
       -0.24283616 -0.27955037 0.32874912 -0.20554563
000210 10 a5 08 be ca df 14 be 1b 87 99 3e 29 cc 9b be
       -0.13344216 -0.14538494 0.2998589 -0.304292
000220 07 58 4e be f6 37 8c 3d 8b 7c 5c be c9 ff b9 bd
       -0.20150767 0.06846611 -0.21531884 -0.0908199
000230 cd 42 9a be 67 e0 51 be 2b a2 3b be 39 a5 4f 3e
       -0.3012909 -0.20495759 -0.18323581 0.20277871
000240 8b 01 95 38 1b 2d b6 be d2 64 d9 bd a7 72 b9 be
       7.105161e-05 -0.35581288 -0.10614933 -0.36220285
000250 ea 3c 3e 3d 8a 6d 6e 3e 18 6c 93 3d ee b8 a7 3d
       0.04644481 0.23283973 0.071983516 0.081895694
000260 c7 0f e7 bd 21 1e 92 bd 41 85 90 be a1 a4 60 be
       -0.11282306 -0.07134653 -0.28226665 -0.21937801
000270 a4 a7 9c be ad 17 42 be 8f eb 1d 3d 49 3c 92 3d
       -0.3059665 -0.18954344 0.038554724 0.07140405
000280 63 05 bc 3e ad cc 8f be a4 96 6a be 93 2b d2 3d
       0.3672286 -0.28085843 -0.22909027 0.102622174
000290 3c 14 92 3d da a7 50 be cd 50 c3 3e 05 1e da 3d
       0.07132766 -0.2037653 0.38147584 0.10650257
0002a0 e4 d6 85 3d 2b 39 e4 bb 1b 39 67 be 57 2d 9a 3d
       0.06535128 -0.0069648228 -0.22580378 0.07528179
0002b0 58 77 12 bd 53 81 61 3e 60 7c 85 be 68 74 da 3c
       -0.035758346 0.2202199 -0.26071453 0.026666835
0002c0 39 52 98 3c 1b 16 83 3e 03 70 36 3e 55 8a 85 3e
       0.018593894 0.25602803 0.17816167 0.260821
0002d0 ff b3 4a 3e fe 7e 2b 3c fb ca 75 3c 68 0e 9e 3e
       0.19795226 0.010467289 0.015002008 0.30870366
0002e0 fc 91 a4 3e 34 1f 8c be 23 6f 2c 3e 06 0c 9f bd
       0.32142627 -0.27367556 0.1683927 -0.07765965
0002f0 20 1a c2 be a9 69 06 be 1a 3d 34 bd 9b cb b6 3e
       -0.37910557 -0.13126244 -0.044003583 0.35702214
000300 f2 33 35 be 44 4e 15 3e d7 ca b2 3d e7 64 75 bd
       -0.17695597 0.14580637 0.08730095 -0.05991068
000310 5f 59 60 be 0a 1f 19 3e b7 6c 81 bd 4e 3d 1b be
       -0.21909092 0.14953247 -0.06319564 -0.15160105
000320 11 db 41 bd e5 2c 4b 3e 88 2f 8d 3d df b0 b9 be
       -0.04732806 0.19841345 0.068938315 -0.36267754
000330 7e eb 82 3e a6 07 86 be bb b0 c5 bd e6 5d 99 3e
       0.2557029 -0.2617771 -0.09652849 0.2995445
000340 b7 de 5f 3e ba 32 83 be c9 51 36 be 3c c9 f6 bc
       0.21862303 -0.2562464 -0.17804636 -0.030125253
000350 01 18 b3 3e 6b 7c 04 3e ab e0 36 be 7e 5a e7 bd
       0.3497925 0.12938087 -0.17859142 -0.11296557
000360 e1 72 b1 bd cb 38 98 be d2 01 91 3e 91 b7 28 3e
       -0.086644895 -0.2973083 0.283217 0.16476275
000370 cd f7 50 be 3f 84 2f be 2c fa 06 bc 92 a3 a2 3e
       -0.20407028 -0.17140292 -0.008238357 0.3176542
000380 fb 2c 2f be fa 6d 14 3d ed 25 a3 3e 56 98 71 be
       -0.17107002 0.036237694 0.31864873 -0.23593268
000390 54 56 d6 be e1 dd b6 bc 8d bd 65 bd f3 f4 0e be
       -0.41862738 -0.022322597 -0.056088973 -0.13960628
0003a0 e3 7b 5d 3d 03 9a 18 be 4d 37 64 3d 03 0a aa be
       0.054073226 -0.14902501 0.0557168 -0.33210763
0003b0 1c a4 8c be e9 9d 16 3e 87 df d9 bd e2 70 bb 3d
       -0.27468956 0.14708675 -0.106383376 0.0915239
0003c0 b8 15 26 bb 5f 30 ee bd 89 69 b5 3e ce ca 68 3e
       -0.0025342535 -0.1163032 0.3543208 0.22733614
0003d0 8a c9 4f 3d 1e fe 2c be f5 51 55 be bb e8 55 be
       0.050729312 -0.16893813 -0.20832045 -0.20889561
0003e0 e5 e6 9c be c0 3b a5 3a a1 4c 0a be 7c 90 cb 3e
       -0.3064491 0.0012606308 -0.13505794 0.3975867
0003f0 af 38 50 be 65 9d 6d bd ab 58 90 3e fd ca e9 3d
       -0.20334123 -0.05801143 0.28192648 0.1141567

output_layer.weight f4 [1, 256]
000000 e9 6a 17 3e 73 7e f7 bc 79 00 8d bd a6 aa d9 bd
       0.14786877 -0.030211663 -0.06884856 -0.10628252
000010 f7 4f a6 bd dc bf d5 be 3a 15 49 3e 31 02 55 3e
       -0.08120721 -0.4174794 0.19637004 0.20801617
000020 23 bd a5 3d d5 77 b2 3d fb 06 be bd 74 8f 8d bd
       0.080927156 0.087142624 -0.09278675 -0.06912127
000030 4a 83 a8 bd 90 6a 70 3e e4 f9 03 3d f9 62 8b bd
       -0.082281664 0.2347815 0.032220736 -0.06805987
000040 cf a9 93 be 8a f6 7b bc e9 56 b4 bd 08 ab f4 3b
       -0.2884049 -0.015378604 -0.08805639 0.0074666776
000050 10 1f 11 bd 01 85 c8 3c b9 2b 9f 3e 07 04 94 bd
       -0.035430014 0.024477484 0.31088045 -0.07227331
000060 15 2a 91 bd ce 1a 44 3e 36 87 0a 3e 34 2a 9b bd
       -0.07088105 0.1915085 0.13528141 -0.07576409
000070 d7 79 12 3e 10 58 ce 3d 2f 66 6f 3e c1 c4 01 3b
       0.1430429 0.1007539 0.23378824 0.0019801112
000080 7e 37 ac bc 11 e8 74 3c 44 b8 37 bd 9d df 24 bd
       -0.021022554 0.014947907 -0.044853464 -0.040252317
000090 4c 91 91 bd 46 e1 07 3e 64 b5 05 bd 7e c7 b6 3d
       -0.07107791 0.13269529 -0.03264369 0.08924769
0000a0 c4 58 d0 bd 18 b3 6b 3d a2 93 f4 bc bf 37 9e 3e
       -0.10173181 0.057543844 -0.029855553 0.30901906
0000b0 dc b4 18 bd fb df ee bc 92 7d a7 be 2d ef 75 bd
       -0.037281856 -0.029159537 -0.3271299 -0.06004255
0000c0 ae 4e a0 3d ff a8 f3 bd 79 9c cd ba 42 56 28 be
       0.07827507 -0.11897468 -0.0015686891 -0.16439155
0000d0 dd c3 8e bd 1a ca 37 be e7 c9 2f bd 01 45 a4 bc
       -0.06970952 -0.1794819 -0.04291716 -0.020052435
0000e0 83 0b 19 3e 9d c8 8f 3e af 0d b3 3d 99 03 8e bd
       0.14945798 0.28082743 0.08742844 -0.0693428
0000f0 62 b9 c9 bc 14 48 80 bd 2c da 43 3e c5 5f 9f bd
       -0.02462453 -0.06263748 0.19126195 -0.077819385
000100 f4 82 37 3e ac b2 88 3d fa d7 0c 3e 59 01 53 bd
       0.17921048 0.06674704 0.13754264 -0.051514957
000110 49 28 50 3e 37 42 91 3e fc 00 df 3d 9f 86 b6 bb
       0.20327868 0.2837083 0.1088886 -0.0055702473
000120 b7 cf 1b be 8b 77 2d bd ea e2 fb bc d8 5c 25 3e
       -0.15215956 -0.042350333 -0.03074785 0.16148698
000130 86 2c a5 be 40 8f 4c bd 3d 7e f6 bc d5 24 51 bd
       -0.3226053 -0.0499413 -0.030089492 -0.051060516
000140 54 c7 88 3d a5 2c a9 3d eb ab 73 3e 70 5d 9f bc
       0.06678644 0.082604684 0.2379605 -0.019453734
000150 6e 3d 5a 3e ad db ba 39 4f fe aa 3d b8 f1 c5 bd
       0.21312496 0.00035640356 0.08349287 -0.09665245
000160 eb e2 5d 3e e3 4f 27 3e c3 44 5d be 25 67 56 be
       0.21668594 0.16339068 -0.21608262 -0.20937784
000170 64 0d 33 3e 38 e9 fc bd fc 0d 02 be 2e ae 4c 3d
       0.17485577 -0.123491704 -0.12700647 0.0499708
000180 cb e4 d3 3c 87 7f 6f bd f5 1e 8f bd fc d1 59 3e
       0.025865933 -0.05847123 -0.069883265 0.21271509
000190 fa 1a 7c 3d 1d bb ce bc 9c f8 a1 bd b2 fd 9f 3e
       0.061549164 -0.025235707 -0.079087466 0.31248242
0001a0 ce 6c ca bc ed 10 42 3e c7 2e 0e 3f 35 ad 99 3e
       -0.024710085 0.18951769 0.55540127 0.3001496
0001b0 e1 ca 65 3e de 26 24 3c a8 25 81 3e 0e 59 83 3e
       0.22440673 0.010019032 0.25224042 0.2565388
0001c0 81 1d 3d 3e 7a 61 04 bd 18 bc a5 3e 83 68 f9 bd
       0.18468286 -0.032319523 0.32370067 -0.12178137
0001d0 ba 64 1b be 74 35 ca bc 23 e7 a0 3e 81 a5 00 be
       -0.15175143 -0.024683692 0.31426343 -0.12563135
0001e0 23 4b f3 bd 9c 65 b8 3d de 6a 64 bc fc 3b 79 3d
       -0.118795656 0.090037555 -0.013941495 0.06084822
0001f0 6b b5 96 bd 5b 81 ef 3e 79 65 49 3d 2c fe 0a 3d
       -0.073588215 0.46778378 0.049169037 0.033933803
000200 33 9f 6e bd 86 f2 93 3d 6f e2 25 bc 78 90 91 3e
       -0.058257293 0.07223992 -0.010124787 0.28430533
000210 12 9d 16 3e 81 3f 84 3d 1f e5 ac 3e c1 79 69 bc
       0.14708355 0.06457425 0.33768556 -0.01425022
000220 a0 7e a9 3d 17 24 55 3a 73 2b cc 3d 4a 59 90 3d
       0.08276105 0.0008130683 0.09969225 0.070482805
000230 5e 67 5e bd af f2 43 bd 67 74 00 3d 23 3b 11 bd
       -0.054297797 -0.047838863 0.03136101 -0.035456788
000240 93 ef 84 3e dc d4 3d 3d 6d 92 76 3d 1f 5c 22 3d
       0.2596403 0.046345577 0.060198236 0.039638635
000250 bb 8a 7c 3d 60 03 cb bc 8c 84 3d bd 93 00 8f 3b
       0.06165574 -0.024781883 -0.046268985 0.004364082
000260 7c a7 60 3e 2f cf 96 be 7d c9 c0 3d a6 ee 39 3e
       0.2193889 -0.29454944 0.09413431 0.18157443
000270 4c f5 28 3e 19 e7 04 3e 66 b3 4b be 8c ae a9 be
       0.16499823 0.12978782 -0.19892654 -0.3314098
000280 6d 7a 67 bd 4b ab 69 be 8b 20 b6 3c b0 8e 8c be
       -0.05651324 -0.2281925 0.022232315 -0.27452612
000290 77 3f 81 be bb a1 3e 3e 5b 70 af bd a0 39 b9 bd
       -0.25243732 0.18616383 -0.08566352 -0.09044194
0002a0 3d 25 8a 3d dd 70 fd bd a9 d1 bc bd d3 94 ab 3e
       0.06745384 -0.123750426 -0.09219677 0.3351198
0002b0 05 77 90 bd eb 94 b8 bc 99 65 9b 3d c0 99 be bd
       -0.07053951 -0.022531947 0.075877376 -0.09306669
0002c0 af c8 9d 3c 7e fa 26 3c d7 e3 9d bd 16 f3 4f 3e
       0.019260732 0.010191558 -0.077094726 0.20307574
0002d0 9e f1 65 bb 26 56 8c 3e 9b e6 87 bd 1d 80 45 3e
       -0.0035086642 0.27409476 -0.066357814 0.19287153
0002e0 db 80 87 3e 45 f8 22 3e 96 37 2c 3e cb e7 95 3e
       0.26465496 0.1591502 0.1681808 0.29278407
0002f0 51 00 38 3d bd 87 00 3e be d6 f1 bb de e5 a0 bd
       0.044922177 0.1255178 -0.0073803356 -0.07856344
000300 c3 48 d7 3d 7f 1d 84 3d 77 3a 47 3d 3b 55 6c 3e
       0.10511925 0.064509384 0.04863974 0.23079388
000310 b8 30 d9 bd 29 aa 91 bd f4 92 a2 3d b9 e3 bb 3d
       -0.106049955 -0.071125336 0.07938185 0.09174294
000320 54 04 12 3e fd 05 19 be 3d 77 13 be b3 68 c6 bd
       0.14259464 -0.1494369 -0.14400955 -0.096879385
000330 ac 3e 07 bc c7 52 16 3e a8 71 4b 3e 0c f0 1b bd
       -0.008254688 0.14680015 0.19867575 -0.038070723
000340 8d dd 84 3e 9d b3 8e be 25 bf 30 3e 03 c9 b7 bd
       0.2595028 -0.2787141 0.17260416 -0.08973887
000350 3a 4c ef bd a3 0d 19 bb 04 b9 f0 bd 5e 9c d1 bd
       -0.11684461 -0.0023354075 -0.11754039 -0.10234903
000360 8a 92 8e 3d 81 8c 76 3e 39 92 30 3e 03 2d 50 bc
       0.06961544 0.24077035 0.1724328 -0.012706044
000370 10 32 44 3e 21 1f 72 bd 9d 9b 1a 3b 71 89 6f bd
       0.19159722 -0.059111718 0.0023591288 -0.058480684
000380 77 bf 18 3f de 1b 2c be 2d c3 0d bd b3 7a a5 bd
       0.5966715 -0.16807505 -0.034609962 -0.08080044
000390 e6 ef 0e 3d 8d f7 54 be 07 72 49 3a d0 e5 94 3d
       0.034896754 -0.20797558 0.0007684533 0.07270396
0003a0 ee b1 de bd 60 35 53 bd 36 a2 13 bc a8 10 1d bd
       -0.10873781 -0.051564574 -0.009010842 -0.038345963
0003b0 f3 52 ae 3e 9e 01 4d 3e 64 95 1f 3e 52 32 5e bd
       0.3404766 0.20020148 0.15584332 -0.054247208
0003c0 bc 01 da bd 19 3c 6b 3e 3b 46 b3 bd e6 89 0f 3e
       -0.10644862 0.22972144 -0.0875363 0.14017448
0003d0 89 9c 6b bb fe b4 01 3e 52 17 47 3e 4a 28 4e be
       -0.0035951457 0.126667 0.1944249 -0.20132557
0003e0 4b 4b a7 3d fd e4 8b be 45 83 84 bd 02 b2 84 bd
       0.08168658 -0.27323142 -0.0647035 -0.06479265
0003f0 eb de 46 3d 84 ee 1d 3e a5 e8 0c 3c 0b 9e 22 be
       0.048552435 0.15423018 0.008600389 -0.15880601
