A2C/final_a2c_model.pt (torch, 27040 bytes, 7 tensors)

layer1.weight f4 [256, 8]
0	0xbd3d0590	-0.046147883
1	0x3e858b14	0.2608267
2	0xbeb38830	-0.3506484
3	0x3f2bea5b	0.67154473
4	0xbe8f2ef4	-0.2796551
5	0x3df3eebc	0.11910769
6	0x3eda2c3a	0.42611867
7	0x3e9b90d8	0.30383945
8	0x3e1c1a9a	0.15244523
9	0xbe69ec0a	-0.22843948
10	0x3d9e25b8	0.07722038
11	0x3f26a612	0.65097153
12	0xbe6a3dd9	-0.22875156
13	0x3dbd60a9	0.09246952
14	0x3d464bea	0.04841224
15	0x3eaa0969	0.33210304
16	0x3d9f3c9f	0.077752344
17	0xbea4b467	-0.32168886
18	0xbcb14aa6	-0.02164204
19	0xbb405c4f	-0.0029351895
20	0xbeaf7193	-0.34266338
21	0x3e838f14	0.25695097
22	0x3e75b50f	0.2399485
23	0x3ec30491	0.3808942
24	0xbeb19169	-0.34681252
25	0xbea21a78	-0.3166082
26	0xbec8ddd5	-0.39231744
27	0x3ee14e9e	0.44005293
28	0x3eb4908a	0.35266525
29	0xbe1231c1	-0.14276792
30	0xbdf1603f	-0.117859356
31	0x3e050069	0.12988438
32	0x3e2038eb	0.15646712
33	0x3d36dfe0	0.044647098
34	0xbd35028b	-0.04419188
35	0x3f0c69f4	0.5484917
36	0x3d361c4d	0.044460583
37	0x3e238208	0.15967572
38	0x3eeb3b9a	0.4594391
39	0x3efd1662	0.4943114
40	0x3d266676	0.040625058
41	0x3e6404cf	0.2226746
42	0xbc49788f	-0.01229681
43	0x3ed28e66	0.41124266
44	0xbe077f5e	-0.1323218
45	0x3e144146	0.14478025
46	0x3df6a60e	0.12043391
47	0x3d52de8f	0.05148178
48	0xbec8a3cf	-0.39187476
49	0x3b1f52bc	0.0024310788
50	0xbe8734ee	-0.2640757
51	0xbe9643dd	-0.2934865
52	0x3f1e5080	0.61841583
53	0x3edecee7	0.4351723
54	0xbea29df7	-0.31761143
55	0x3dfe9a4f	0.12431776
56	0x3e1e5427	0.15461789
57	0xbe9a39ac	-0.30122125
58	0xbb213962	-0.0024600853
59	0x3b031496	0.0020001284
60	0xbe40020a	-0.18750778
61	0xbe59c235	-0.2126549
62	0xbe40ffb2	-0.1884754
63	0xbc997c56	-0.018736046
64	0xbe175cea	-0.14781538
65	0xbe62b86a	-0.22140661
66	0xbdf7b460	-0.12094951
67	0xbcfdae37	-0.030966861
68	0xbe871cb0	-0.26389074
69	0xbe734778	-0.23757732
70	0x3f00d6dd	0.50327855
71	0x3efdf848	0.49603486
72	0x3d1f872b	0.038947266
73	0x3e04e5b6	0.12978253
74	0xbe76aa22	-0.24088338
75	0x3eab73ce	0.3348679
76	0xbcfc699c	-0.030812077
77	0xbdc6354d	-0.09678135
78	0xbdc2cac2	-0.09511329
79	0xbe95f7db	-0.2929066
80	0x3e8a30a4	0.26990235
81	0xbaaf03b1	-0.001335254
82	0x3c6862d3	0.014183718
83	0xbf038077	-0.51367897
84	0xbe1a1f83	-0.15051083
85	0x3d1a2f5c	0.03764282
86	0xbe0b177a	-0.13583174
87	0x3e820d26	0.25400656
88	0xbd3d5038	-0.04621908
89	0x3dfbcc8f	0.12294876
90	0x3b7b3674	0.0038332017
91	0xbc34075d	-0.010988084
92	0x3db8031a	0.089849666
93	0xbedf3e28	-0.4360211
94	0x3ef42750	0.47686243
95	0xbe90fe75	-0.28319135
96	0xbd7ba10b	-0.06143288
97	0xbe7f30f0	-0.24921012
98	0xbd9fdb35	-0.07805482
99	0xbf0c69c4	-0.54848886
100	0xbe1ea08a	-0.15490928
101	0xbe613f9d	-0.21996923
102	0xbe0c7ef6	-0.13720307
103	0xbe299032	-0.16558912
104	0x3e6d5d06	0.23180017
105	0x3e177f0b	0.14794557
106	0xbe8d4873	-0.27594337
107	0x3f1be0ae	0.6088971
108	0x3e6032ea	0.21894422
109	0xbdc4fe6a	-0.09618838
110	0x3d560b39	0.052256797
111	0xbcf12689	-0.02943732
112	0xbeab391a	-0.33442003
113	0x3d01d9f4	0.031701997
114	0x3a4d2e86	0.0007827062
115	0xbe132e4b	-0.14373128
116	0xbed477cb	-0.41497645
117	0x3e814f35	0.25255743
118	0x3eb26214	0.34840453
119	0xbed26115	-0.41089693
120	0xbdc68d93	-0.09694972
121	0xbdb2d98e	-0.087329015
122	0x3edce442	0.43142897
123	0x3e8bc859	0.2730129
124	0xbf147d1c	-0.580034
125	0xbd009f00	-0.031401634
126	0xbea00950	-0.31257105
127	0xbd871e83	-0.065976165
128	0x3e58d8a7	0.21176396
129	0xbe47a99c	-0.19498295
130	0x3d22f1cb	0.039781373
131	0xbef0b919	-0.47016218
132	0x3eea94a4	0.4581653
133	0xbcf5ecea	-0.030020196
134	0x3cdc9863	0.026928132
135	0xbd250557	-0.040288296
136	0x3e8e0e63	0.2774535
137	0xbd755272	-0.05989308
138	0x3ed986af	0.42485568
139	0x3e905df1	0.28196672
140	0xbebe15ab	-0.37125906
141	0xbe2e912a	-0.17047563
142	0xbebff7ee	-0.37493843
143	0x3e2559b6	0.16147503
144	0x3e7237d6	0.23654112
145	0x3e8f4795	0.279843
146	0xbde629f7	-0.11238473
147	0xbe8b2ba8	-0.27181745
148	0x3e4e32bc	0.20136541
149	0x3eaba980	0.33527756
150	0x3e23b7cf	0.15988086
151	0xbee27b9d	-0.44234934
152	0xbdcd97dc	-0.100387305
153	0x3e307c7d	0.17234989
154	0xbe953b51	-0.29146817
155	0x3da9ce90	0.08291352
156	0x3f1d5f85	0.61473876
157	0x3e032870	0.12808394
158	0xbde890f0	-0.1135577
159	0xbe3c5a69	-0.18393864
160	0xbdb10a31	-0.08644522
161	0x3e8d8166	0.27637786
162	0x3cbb9888	0.022899881
163	0x3dc10e83	0.09426596
164	0x3c953778	0.018214926
165	0xbe84250e	-0.2580952
166	0xbe509e33	-0.20372848
167	0xbde11a5a	-0.10991354
168	0xbddf0ccd	-0.108911134
169	0xbe434871	-0.19070603
170	0x3c42437c	0.01185691
171	0x3f17835f	0.5918483
172	0xbe9a2c3f	-0.30111882
173	0xbd7c5e09	-0.061613116
174	0x3eb6ec14	0.35726988
175	0x3ee4b7a6	0.44671363
176	0xbd2f6f69	-0.04283086
177	0x3e309ee4	0.17248112
178	0xbcd93e6d	-0.026519025
179	0xbef37029	-0.4754651
180	0x3ed29cb5	0.41135183
181	0xbe7d9b6c	-0.2476632
182	0xbcf6f6e9	-0.030147033
183	0x3d411d8e	0.047147326
184	0x3eafe861	0.3435698
185	0xbe395d98	-0.1810211
186	0x3f060bcc	0.5236175
187	0x3e7ad8ba	0.24496737
188	0xbf18163f	-0.59408945
189	0x3e109c30	0.14122081
190	0x3e6acc4c	0.22929496
191	0xbe17a020	-0.14807177
192	0xbe73087d	-0.23733707
193	0x3e677aee	0.22605488
194	0x3eb54398	0.35403132
195	0xbd929f95	-0.07159344
196	0xbed932a0	-0.42421436
197	0xbf165466	-0.5872253
198	0x3e06de0a	0.13170639
199	0xbe3a23bf	-0.18177699
200	0x3cf03468	0.029321864
201	0x3e9c202e	0.304933
202	0xbe0e766a	-0.13912359
203	0x3ea8d73b	0.32976708
204	0x3ce93fa3	0.028472727
205	0x3ec2f2cf	0.38075873
206	0xbe926243	-0.28590593
207	0xbdee9dd5	-0.11651198
208	0x3dbc3c6f	0.09191214
209	0x3e361697	0.17782055
210	0xbd005b42	-0.03133703
211	0x3e5445d0	0.20729756
212	0x3da9aef0	0.0828532
213	0xbd7080ee	-0.058716707
214	0x3e65d17b	0.22443192
215	0xbe064eaa	-0.13115945
216	0x3c53a01b	0.01291659
217	0xbe0a96bb	-0.13534062
218	0xbe83b0fe	-0.25720972
219	0xbee37058	-0.4442165
220	0xbe93012b	-0.2871183
221	0x3e07442f	0.13209604
222	0xbe3007a0	-0.17190409
223	0x3ea9ac55	0.3313929
224	0xbdbe2225	-0.09283856
225	0x3e60eb24	0.21964699
226	0xbe9109c9	-0.28327778
227	0x3eaa1413	0.3321844
228	0x3e6eb098	0.23309553
229	0x3d9fbd69	0.07799799
230	0xbe6d1365	-0.2315193
231	0xbe3f9328	-0.1870848
232	0xbe81d0cd	-0.25354615
233	0xbdc2e995	-0.095172085
234	0xbe033d49	-0.12816347
235	0xbec92925	-0.39289203
236	0x3e932cf6	0.2874524
237	0xbe86b849	-0.26312473
238	0x3efe31ff	0.4964752
239	0x3eaa0988	0.33210397
240	0xbddb6b2d	-0.107138015
241	0xbddd60f3	-0.10809507
242	0x3e891924	0.26776993
243	0xbe98f662	-0.29875475
244	0x3f06816f	0.5254125
245	0xbef095db	-0.4698933
246	0xbe98706e	-0.29773277
247	0x3e48c4cf	0.19606327
248	0x3e80c2fb	0.25148758
249	0xbe898f38	-0.2686708
250	0xbe5bd81b	-0.21469156
251	0x3e0a0944	0.13480097
252	0x3d3901ed	0.045167852
253	0x3e6bc479	0.23024167
254	0xbe79e0c6	-0.2440215
255	0xbea1e5a0	-0.31620502

layer1.bias f4 [256]
0	0x3e99899a	0.29987794
1	0x3e22f149	0.15912355
2	0x3d14194f	0.03615695
3	0x3e620f11	0.2207606
4	0x3e854a62	0.26033312
5	0x3e2c3bc9	0.16819681
6	0x3d81a7d2	0.06330837
7	0xbeb18ab8	-0.34676147
8	0x3e47ad96	0.19499812
9	0xbebff7d8	-0.37493777
10	0x3db5b991	0.088732846
11	0xbe5f61aa	-0.218146
12	0x3eaacb6d	0.33358327
13	0x3e6a19e3	0.22861437
14	0xbd361e83	-0.044462692
15	0x3eb65534	0.3561188
16	0x3e6c6b00	0.23087692
17	0x3e9656d2	0.29363114
18	0x3e8e4801	0.2778931
19	0x3da29254	0.07938066
20	0xbd218670	-0.03943485
21	0xbe5ecc3b	-0.21757595
22	0x3d9075a8	0.07053691
23	0x3e9ddf69	0.3083451
24	0xbc499cea	-0.012305478
25	0x3e8d690d	0.2761921
26	0xbe9a18fb	-0.30097184
27	0x3e62b6dd	0.2214007
28	0x3e7c22bc	0.24622625
29	0x3ca447ea	0.020053823
30	0x3df1f135	0.11813585
31	0xbec7dee6	-0.39037246
32	0x3de97693	0.11399569
33	0x3e2940bc	0.165286
34	0x3dc2f04c	0.09518489
35	0x3e6baaa3	0.23014311
36	0x3d3b09bf	0.04566359
37	0x3d71f2af	0.05906933
38	0x3e30b798	0.17257535
39	0x3da4ea6f	0.08052527
40	0xbe7c9aa6	-0.24668369
41	0x3d8024e0	0.06257033
42	0xbe78805e	-0.24267718
43	0xbde9dd8f	-0.11419212
44	0x3d8718d0	0.065965295
45	0x3d4ccd8d	0.050000716
46	0xbe0bd795	-0.13656457
47	0xbebb272c	-0.36553323
48	0xba8062f2	-0.0009795113
49	0x3e056d7b	0.13030045
50	0x3dc047f6	0.093887255
51	0x3e8db3d4	0.2767626
52	0xbea32c6a	-0.31869823
53	0xbe872f45	-0.2640325
54	0xbe7ba3e3	-0.24574237
55	0x3e53a21a	0.20667306
56	0x3eb8218c	0.35963094
57	0xbdaa91d2	-0.08328594
58	0x3dd4dae0	0.103933096
59	0x3e721e2a	0.23644319
60	0x3d8d6b03	0.069051765
61	0x3e449862	0.19198754
62	0xbe88f3c1	-0.2674847
63	0xbe9cef43	-0.30651292
64	0xbe5933b3	-0.21211128
65	0x3e20665a	0.15664044
66	0xbd6aab9a	-0.05729256
67	0xbd9045d8	-0.07044572
68	0x3dd07503	0.10178568
69	0x3ea50cf3	0.32236442
70	0x3e498ffe	0.19683835
71	0x3df784ac	0.12085852
72	0x3dd803b0	0.10547578
73	0xbe45dc03	-0.19322209
74	0x3eb829b7	0.35969326
75	0x3e0953a9	0.1341082
76	0x3df7ca7f	0.1209917
77	0xbd434bb1	-0.047679607
78	0x3dd346ea	0.1031626
79	0x3e72d41b	0.23713724
80	0x3e9f3271	0.3109317
81	0x3c8379f6	0.016049366
82	0x3e74f7b4	0.23922616
83	0xbe7d2fb0	-0.24725223
84	0xbc83640c	-0.016038917
85	0x3e83aff6	0.25720185
86	0x3e26819b	0.16260378
87	0x3e9b6f49	0.3035834
88	0x3ea4a663	0.32158193
89	0x3e76898b	0.24075906
90	0xbd65116e	-0.055924825
91	0x3da9d2e3	0.082921766
92	0xbd8a9a51	-0.06767715
93	0x3e3b3008	0.18280041
94	0x3ecb7c09	0.3974307
95	0x3d0826ca	0.033240117
96	0x3c347ddb	0.011016334
97	0x3e20d8b8	0.15707672
98	0x3ddb311c	0.10702726
99	0x3e4e6877	0.20157038
100	0xbe236c79	-0.15959348
101	0xbd94aef2	-0.07259931
102	0xbe413def	-0.18871282
103	0x3e9124d6	0.28348416
104	0x3e3a7b88	0.18211186
105	0x3e6b8776	0.23000893
106	0x3e276a1d	0.16349073
107	0x3dc7c781	0.09754849
108	0x3e2cf6c1	0.16891004
109	0x3dd9273d	0.10603187
110	0x3e2475b0	0.16060519
111	0x3cef6455	0.029222647
112	0xbe81fcce	-0.25388187
113	0x3c3da0be	0.011573968
114	0x3e61eaaa	0.22062173
115	0xbeb7a946	-0.35871333
116	0xbdefe656	-0.11713855
117	0x3e2fd5e4	0.17171437
118	0x3dee9a93	0.116505764
119	0x3e174928	0.14774
120	0x3e4803e6	0.19532737
121	0xbe091228	-0.13385832
122	0x3eaf9e7a	0.34300596
123	0xbe37a0df	-0.17932461
124	0x3e349394	0.17634422
125	0xbcadca6b	-0.021214684
126	0x3e849950	0.25898218
127	0xbcf318dd	-0.029674942
128	0xbe21f8d5	-0.15817578
129	0x3e9e4ff7	0.30920383
130	0x3dab0bfc	0.08351895
131	0xbe8101a9	-0.2519658
132	0x3e66fc4d	0.22557183
133	0x3d9f1164	0.07766989
134	0x3de66bb4	0.112510115
135	0x3eaf49e9	0.34236076
136	0xbe916aaf	-0.28401706
137	0x3e88f790	0.26751375
138	0x3d896d3e	0.067102894
139	0x3eaabd4f	0.33347556
140	0x3e92e050	0.28686762
141	0xbc3a5221	-0.01137212
142	0xbdb4e32d	-0.08832393
143	0x3e562e90	0.209162
144	0x3ea88012	0.3291021
145	0x3e9e6547	0.30936643
146	0xbc54c4ef	-0.012986406
147	0x3e2aff2a	0.166989
148	0x3ed0b53e	0.40763277
149	0xbe7fb562	-0.24971536
150	0x3d0749e1	0.03302944
151	0xbe332d25	-0.1749769
152	0xbd9596f0	-0.0730418
153	0xbdc4512e	-0.09585796
154	0x3d84f3b2	0.06491794
155	0xbd86c0f8	-0.065797746
156	0x3e85061e	0.2598123
157	0xbe614994	-0.22000724
158	0xbe8884cf	-0.26663825
159	0xbe66d4f0	-0.22542167
160	0x3dc9e68f	0.09858429
161	0xbe672238	-0.22571647
162	0x3e599665	0.21248777
163	0x3d87e579	0.06635565
164	0x3eadf4d6	0.33975857
165	0xbe11f709	-0.14254393
166	0x3e5bd312	0.21467236
167	0x3e8df909	0.2772906
168	0x3e4f78b4	0.20260888
169	0xbd4648b9	-0.048409197
170	0x3dd2d9ee	0.10295473
171	0x3eac2880	0.3362465
172	0x3e96eed5	0.2947909
173	0xbda4f98d	-0.080554105
174	0x3d1e0a5d	0.038584102
175	0x3d858158	0.06518811
176	0x3de4e66a	0.111767605
177	0xbe03e7d5	-0.12881406
178	0xbe26bbea	-0.16282621
179	0xbde7dc76	-0.113213465
180	0xbe6ac083	-0.22925
181	0x3e8a5d05	0.27024093
182	0x3dc6007b	0.096680604
183	0x3e2cfa4f	0.1689236
184	0x3d84f5b3	0.06492176
185	0x3e7ac658	0.24489725
186	0x3d53efd6	0.051742397
187	0x3d1abf48	0.037780076
188	0x3dac4813	0.084121846
189	0xbe8e4f4c	-0.27794874
190	0xbd4e768d	-0.050406028
191	0x3e876173	0.26441535
192	0x3e57c476	0.21071038
193	0xbe2b81d6	-0.16748747
194	0x3e19c4df	0.15016507
195	0x3e96c89d	0.2944993
196	0x3e5d8cb5	0.21635707
197	0xbe8b0025	-0.27148548
198	0x3e0d990a	0.13827911
199	0x3e687044	0.22699076
200	0x3dad801c	0.084717005
201	0x3e4b4fcb	0.19854657
202	0x3e166ef9	0.1469077
203	0x3e585aba	0.2112836
204	0xbdaaab6f	-0.083334796
205	0x3cf34fb1	0.029701086
206	0xbeb26c20	-0.34848118
207	0x3b73e7dd	0.0037217059
208	0x3e8ae137	0.2712495
209	0x3e63d4c0	0.22249126
210	0x3e72f0e1	0.237247
211	0xbec5cb6e	-0.38631767
212	0x3eb9e1ac	0.36304986
213	0xbe3fc535	-0.18727572
214	0x3e113b37	0.14182745
215	0xbd96848f	-0.07349502
216	0x3dbc6533	0.0919899
217	0x3cd12183	0.025528675
218	0x3def3b10	0.11681187
219	0x3df56718	0.11982554
220	0x3e56f530	0.20991969
221	0x3e500f7d	0.20318408
222	0xbe9b51c6	-0.30335826
223	0x3e2ae050	0.16687131
224	0x3db2c0fe	0.087282166
225	0x3e954c3b	0.29159722
226	0xbbd35fb1	-0.0064506163
227	0xbc84874e	-0.0161778
228	0xbe7ae2bc	-0.24500555
229	0x3bf05d67	0.007335353
230	0x3de6b350	0.1126467
231	0x3e98ed2a	0.29868442
232	0xbeb4e162	-0.35328203
233	0x3e06bdbd	0.13158317
234	0x3e010957	0.12601219
235	0xba11aa9b	-0.0005556733
236	0xbdc21042	-0.09475757
237	0x3e23e034	0.16003495
238	0x3d6ef952	0.05834324
239	0x3e50a651	0.20375945
240	0xbd27d4b5	-0.040974338
241	0xbe434be9	-0.19071926
242	0x3eb7aac5	0.35872474
243	0x3e445eea	0.19176832
244	0x3e8a1fde	0.26977438
245	0x3e49bc81	0.19700815
246	0x3e158320	0.14600801
247	0xbe27e730	-0.16396785
248	0xbe1196ee	-0.14217731
249	0x3e919e40	0.28441048
250	0x3e9fb4f3	0.3119274
251	0xbe85a556	-0.26102704
252	0x3e4d4101	0.20044328
253	0x3eb0f95a	0.3456524
254	0x3de30f27	0.110868745
255	0xbbd45db2	-0.006480896

layer2.weight f4 [4, 256]
0	0x3e1dc5b3	0.15407448
1	0x3e3df1e0	0.18549299
2	0x3dd3999a	0.103320315
3	0xbbfd56e2	-0.0077313045
4	0x3e28b506	0.16475305
5	0x3d3ff8c4	0.0468681
6	0xbdc01d02	-0.09380533
7	0x3cd7cb42	0.026342038
8	0x3e23ed18	0.16008413
9	0x3c6ef06c	0.014583688
10	0xbde35c72	-0.11101617
11	0xbe40498e	-0.18778059
12	0xbe25ec54	-0.16203433
13	0x3de25217	0.11050814
14	0xbd941cd4	-0.07232061
15	0xbd9bad12	-0.0760137
16	0xbda92efb	-0.08260914
17	0xbcecdbf2	-0.028913472
18	0xbe0735e8	-0.13204157
19	0xbd8d6298	-0.06903571
20	0x3cac411c	0.02102714
21	0x3e9cd3c6	0.3063032
22	0xbe1f48bb	-0.15555088
23	0x3c53e6cf	0.012933447
24	0xbcfd2fbd	-0.030906552
25	0xbd5b5f2f	-0.05355757
26	0x3c8c50a4	0.017128296
27	0xbc4ecb6d	-0.012621743
28	0xbd8d4f00	-0.06899834
29	0x3d8345e6	0.064098164
30	0xbe9d3255	-0.30702463
31	0x3d3417f4	0.043968156
32	0xbe5639cf	-0.2092049
33	0x3dbc415b	0.09192153
34	0x3d8e972d	0.06962428
35	0xbe61010e	-0.21973059
36	0xbdcd7930	-0.1003288
37	0x3e132c65	0.14372404
38	0x3e832ba1	0.25619224
39	0xbe1d3192	-0.15350941
40	0xbe431d8a	-0.19054237
41	0x3d9a01ed	0.075198986
42	0xbe1148d6	-0.14187941
43	0xbd13e22c	-0.036104366
44	0xbd4eb484	-0.050465122
45	0xbc4b7b5f	-0.012419551
46	0xbce143fc	-0.027498238
47	0x3a86c537	0.0010282163
48	0xbe26747a	-0.1625537
49	0x3db7e531	0.08979262
50	0x3dabfb57	0.08397549
51	0x3c83a9db	0.016072204
52	0xbcae71df	-0.021294532
53	0x3b6bef0e	0.0036000642
54	0xbdf2f064	-0.11862257
55	0xbe2f0fc0	-0.17095852
56	0xbdc5b5f8	-0.096538484
57	0x3e8bdffa	0.27319318
58	0x3e42edad	0.19035979
59	0xbc6bf377	-0.014401308
60	0x3d2f00fc	0.04272555
61	0x3ce7a853	0.028278505
62	0xbd1db538	-0.0385029
63	0xbc424790	-0.011857882
64	0xbd6aaa35	-0.05729123
65	0xbcbf5c39	-0.023359405
66	0xbd6c1345	-0.057635564
67	0xbe1c53d4	-0.15266353
68	0x3de22479	0.11042113
69	0xbdab328f	-0.08359253
70	0x3bd69a4f	0.0065491567
71	0x3bb46b97	0.00550599
72	0xbe52e5a2	-0.2059541
73	0xbcde778b	-0.027156612
74	0xbdc327d1	-0.09529079
75	0xbe3155ae	-0.1731784
76	0xbe0515f9	-0.12996663
77	0xbe02e905	-0.12784202
78	0xbc23bbbe	-0.009993492
79	0x3dec6378	0.1154241
80	0xbd89ba76	-0.06725018
81	0xbda81f1c	-0.08209059
82	0x3b677b7b	0.0035321403
83	0x3dc3120a	0.09524925
84	0xbd80c4fd	-0.062875725
85	0xbe181f19	-0.14855613
86	0xbe340a25	-0.17581995
87	0xbe33a6c0	-0.17544079
88	0xbdf974fb	-0.121805154
89	0xbe45e383	-0.1932507
90	0x3e8205ee	0.2539515
91	0x3e6ea59f	0.23305367
92	0xbe026c90	-0.12736726
93	0x3e40e837	0.18838583
94	0xbe3feb7c	-0.18742174
95	0x3e47016d	0.19434138
96	0xbe518b8a	-0.20463386
97	0xbe28f855	-0.16500981
98	0x3e4dd507	0.20100795
99	0x3e1a98f2	0.15097407
100	0xbc234be3	-0.009966823
101	0xbcbc7f29	-0.023009853
102	0x3c6ce052	0.014457779
103	0x3d0e90c3	0.034806024
104	0x3e0bf6eb	0.1366841
105	0xbd0c3ecf	-0.034239586
106	0xbe6b1275	-0.2295626
107	0xbdbeb508	-0.09311873
108	0xbd8790ee	-0.0661944
109	0xbd83296e	-0.064043865
110	0x3d7ce438	0.061741084
111	0x3dee1359	0.11624784
112	0xbbd945d2	-0.0066306377
113	0x3c359e21	0.011085064
114	0xb9848c6a	-0.0002528162
115	0x3d6537bc	0.055961356
116	0xbdc5bdbd	-0.0965533
117	0x3e0d8e61	0.13823844
118	0x3def4664	0.11683348
119	0x3dc3cd1a	0.095606044
120	0x3daa26c0	0.08308172
121	0xbe2687a3	-0.16262679
122	0x3d271d4c	0.040799424
123	0xbdaf7657	-0.085674934
124	0xbe026c64	-0.1273666
125	0xbe73053d	-0.23732467
126	0x3d2cbca8	0.042172104
127	0x3d80fae9	0.06297857
128	0xbe2eb52e	-0.17061302
129	0xbdfcaf93	-0.123381756
130	0xbe2d20ad	-0.16906996
131	0xbdc8d40c	-0.0980607
132	0x3e6a0e50	0.22857022
133	0xbd7c0ee0	-0.061537623
134	0xbe0b7dda	-0.13622227
135	0xbae5c809	-0.0017530929
136	0xbca2c450	-0.019869
137	0xbcab982a	-0.02094658
138	0xbd820f99	-0.06350631
139	0x3c6aeeb3	0.014339137
140	0xbddeb0ae	-0.10873543
141	0xbe181977	-0.14853464
142	0xbdd777a8	-0.105208695
143	0xbde71105	-0.11282543
144	0x3cdae6fb	0.026721468
145	0x3d0c0d34	0.03419228
146	0xbda888c3	-0.0822921
147	0x3e03f48f	0.1288626
148	0xbe20bc66	-0.15696868
149	0x3db8a2b8	0.09015411
150	0x3e863172	0.262096
151	0xbe423edb	-0.1896929
152	0xbe2a785b	-0.16647474
153	0xbd88a1b0	-0.066714644
154	0xbd0959dd	-0.033532966
155	0x3d40188e	0.046898417
156	0x3de3812c	0.11108622
157	0xbd97ddaa	-0.07415326
158	0xbd5455a3	-0.051839482
159	0x3d0d262c	0.03446023
160	0xbd568927	-0.052376892
161	0x3d402e35	0.046919066
162	0x3d6acaf7	0.05732247
163	0x3dfeb0e6	0.124360844
164	0xbe3f11f1	-0.18659188
165	0x3e0f7d8d	0.14012738
166	0xbd60d40d	-0.054889727
167	0xbe5c7778	-0.21529949
168	0xbda91d62	-0.082575575
169	0x3b10c195	0.002208804
170	0x3e21c8b0	0.15799212
171	0x3e1fc6d9	0.15603198
172	0xbd35626b	-0.04428331
173	0xbdca9fc6	-0.098937556
174	0xbccd7fee	-0.025085416
175	0xbe0ae628	-0.1356436
176	0xbe480bcf	-0.19535755
177	0xbe8c0987	-0.2735102
178	0x3e7b023e	0.24512574
179	0x3c8c81cb	0.017151734
180	0x3c5da760	0.013528675
181	0x3d5f9639	0.054586623
182	0xbe1a8fbc	-0.15093893
183	0xbe3bb921	-0.1833234
184	0x3db35935	0.08757249
185	0x3dacc911	0.08436788
186	0xbc9bdadb	-0.019025257
187	0xbe120975	-0.1426142
188	0xbd639099	-0.05555782
189	0x3e85b79e	0.2611665
190	0xbd1ad813	-0.03780372
191	0xbe413470	-0.1886766
192	0xbc8b4d61	-0.01700467
193	0x3bead122	0.007166044
194	0xbde400bd	-0.11132953
195	0xbd0997fa	-0.0335922
196	0xbd2769b8	-0.040872306
197	0xbd008583	-0.031377327
198	0xbd8fdf96	-0.070250675
199	0xbd9e151c	-0.0771887
200	0xbcff533e	-0.031167623
201	0xbd2faaad	-0.04288738
202	0x3e428add	0.18998285
203	0x3da0690f	0.07832538
204	0x3e917947	0.2841284
205	0xbd753837	-0.059868064
206	0xbd5b5ee8	-0.053557307
207	0xbde33a01	-0.11095048
208	0xbd875fa7	-0.06610041
209	0xbda263e0	-0.07929206
210	0x3e26dbe1	0.16294815
211	0xbd5428f6	-0.051796876
212	0xbe589114	-0.21149093
213	0xbe1fb1a9	-0.15595116
214	0xbdf2b5ef	-0.11851107
215	0x3cf8ea18	0.030385062
216	0xbc089ac3	-0.008337679
217	0x3d3a7e03	0.04553033
218	0x3df4a941	0.11946345
219	0x3cf9946a	0.030466277
220	0xbc62b97d	-0.013838169
221	0x3e3af960	0.18259192
222	0x3d49ad3e	0.049237482
223	0x3d9e8587	0.07740312
224	0x3e1bc39b	0.15211336
225	0xbdf9bf07	-0.12194639
226	0xbe2853a6	-0.1643816
227	0x3e43b5e0	0.19112349
228	0x3daab04c	0.08334407
229	0xbe226ee5	-0.15862615
230	0xbc6da999	-0.014505767
231	0x3d8dff8e	0.06933509
232	0x3cf6bebc	0.030120246
233	0xbdb6984e	-0.089157686
234	0xbbcdb276	-0.0062773777
235	0xbd9882fe	-0.0744686
236	0x3d519f9a	0.0511776
237	0x3ddbdb10	0.10735142
238	0x3dcadc21	0.099052675
239	0xbc947141	-0.01812041
240	0x3dec37fc	0.11534116
241	0x3d982e59	0.07430715
242	0xbe3b289a	-0.18277207
243	0xbe30f916	-0.17282519
244	0xbd8fe091	-0.070252545
245	0xbc4d6bf6	-0.012537947
246	0xbdf5c078	-0.11999601
247	0xbd7e282a	-0.062050022
248	0xbd554b67	-0.052073862
249	0xbd5ccb65	-0.05390491
250	0xbe335c59	-0.17515697
251	0xbdd8a1d3	-0.105777405
252	0x3c45f1db	0.012081589
253	0xbd710651	-0.058843914
254	0x3e4c74ea	0.19966474
255	0xbda82744	-0.08210614

layer2.bias f4 [4]
0	0x3c8cc92e	0.017185774
1	0x3ccf1fe0	0.025283754
2	0x3bcb8e37	0.0062120217
3	0x3cf5e4f3	0.030016398

input_layer.weight f4 [256, 8]
0	0xbd6b4509	-0.057438884
1	0x3cff8777	0.031192524
2	0x3e1d92eb	0.15388076
3	0xbeffca6b	-0.4995912
4	0xbe97cfc7	-0.2965071
5	0x3e3e6b6e	0.18595669
6	0xbefb4f43	-0.4908391
7	0xbd2bd1a5	-0.04194798
8	0x3d47e903	0.0488062
9	0x3e64e830	0.22354198
10	0x3e8c3a28	0.2738812
11	0x3e7de25d	0.24793382
12	0xbeab1f15	-0.3342215
13	0xbe38216e	-0.17981502
14	0x3e2264ed	0.15858813
15	0xbcf6c124	-0.030121394
16	0xbeabef54	-0.3358103
17	0xbdc56e66	-0.096401975
18	0xbe8aaf17	-0.27086708
19	0x3e12f522	0.14351323
20	0xbda7e47a	-0.08197875
21	0xbe9aca71	-0.30232576
22	0x3ec40acb	0.38289484
23	0xbe20bb39	-0.1569642
24	0xbc0ea74e	-0.008706881
25	0x3d18ea45	0.03733279
26	0xbab16e57	-0.0013536912
27	0xbebd3850	-0.36957026
28	0xbcbeb7cd	-0.023281002
29	0x3eceedb7	0.40415737
30	0x3e88e521	0.2673731
31	0x3eaf9c3a	0.3429888
32	0x3e8f6668	0.28007817
33	0xbd55a6c1	-0.052160982
34	0x3d0687b9	0.03284428
35	0x3e79b9ef	0.24387334
36	0x3d444e02	0.047925957
37	0x3ec87070	0.39148283
38	0x3e249684	0.16073042
39	0x3da59c67	0.08086472
40	0x3c8b1821	0.016979279
41	0xbda8fbf6	-0.08251183
42	0x3f0ac480	0.54206085
43	0xbe459284	-0.19294173
44	0xbe4e6339	-0.20155038
45	0xbf48d40c	-0.7844856
46	0x3de1baa0	0.11021924
47	0x3e439348	0.19099152
48	0x3ed33a75	0.41255537
49	0x3e0c3c05	0.1369477
50	0xbd858f4d	-0.06521473
51	0xbdda6208	-0.10663229
52	0x3f272675	0.65293056
53	0x3cdff8b3	0.027340269
54	0x3dbf5d2f	0.09343945
55	0x3d4cf6c6	0.05004003
56	0xbcb79097	-0.022407813
57	0xbf2ed9ff	-0.68301386
58	0x3e214949	0.15750612
59	0x3f1817d8	0.5941138
60	0xbcf8feed	-0.030394996
61	0xbe0a91b2	-0.13532141
62	0xbe19c6e8	-0.15017283
63	0x3e1e8394	0.1547988
64	0x3d934a08	0.07191855
65	0x3e6b2ce2	0.2296634
66	0xbdddc015	-0.10827652
67	0xbe2bce95	-0.16778024
68	0xbde23fb5	-0.110473074
69	0xbe5b0fd6	-0.2139276
70	0x3e0d18d3	0.13779001
71	0xbed81fed	-0.42211857
72	0x3dd3ed9d	0.103480555
73	0xbec3df8d	-0.38256493
74	0xbeb715b6	-0.35758752
75	0x3c41acf4	0.01182102
76	0xbca1f522	-0.019770209
77	0xbdc793e1	-0.097450025
78	0xbe14fddf	-0.14549969
79	0xbde91bb6	-0.113822386
80	0x3ebf2bca	0.37338096
81	0xbe69c972	-0.22830752
82	0x3e934018	0.28759837
83	0xbeb19947	-0.34687254
84	0x3d94de0b	0.07268914
85	0x3dcee90d	0.10103045
86	0x3e64ab45	0.22330959
87	0x3d17557f	0.03694677
88	0x3ea6af01	0.32555392
89	0xbe87cf49	-0.26525334
90	0xbe429eb7	-0.19005857
91	0xbe6e5e37	-0.23278128
92	0xbc63a705	-0.013894801
93	0x3cc302d6	0.023805063
94	0x3ec16d33	0.37778625
95	0x3eaec0e0	0.34131527
96	0x3d4c96d4	0.04994853
97	0xbd6b22af	-0.057406124
98	0x3e776dfe	0.24163052
99	0xbdf9b5ee	-0.121929035
100	0x3e02ac91	0.12761141
101	0x3eb57450	0.35440302
102	0x3d88b948	0.066759646
103	0x3d010d1a	0.031506635
104	0x3d6d1423	0.057880532
105	0x3dfb0ff6	0.12258904
106	0xbec65adf	-0.38741204
107	0xbed34498	-0.4126327
108	0x3d021c1e	0.031765096
109	0xbd269313	-0.040667605
110	0xbc33d2b1	-0.010975526
111	0xbe77759b	-0.24165957
112	0x3d954295	0.0728809
113	0x3e9af64f	0.30266044
114	0x3dc95892	0.098313466
115	0xbe6a7390	-0.22895646
116	0x3e268d94	0.16264945
117	0x3d1b07e0	0.037849307
118	0x3ec66dc0	0.38755608
119	0x3cb96b08	0.022634044
120	0x3e543044	0.20721537
121	0x3dbdd9de	0.092700705
122	0x3e1b1648	0.15145218
123	0x3e0a986b	0.13534705
124	0x3e18e792	0.14932087
125	0x3e177a5e	0.14792773
126	0x3e38e5e9	0.18056454
127	0xbea74b5c	-0.32674682
128	0x3f01bfdd	0.50683385
129	0x3e95cd2d	0.292581
130	0x3ec75d75	0.3893849
131	0x3e9a93e9	0.30190971
132	0xbeca8235	-0.39552465
133	0xbf34c22b	-0.70608777
134	0x3df514d3	0.119668625
135	0xbe19ebad	-0.1503131
136	0xbca47458	-0.020075008
137	0x3e3f7003	0.18695073
138	0x3e636c04	0.22209173
139	0xbd2aacbc	-0.04166864
140	0x3ea67864	0.32513726
141	0x3d580dd4	0.052747563
142	0x3e1f9cb2	0.15587118
143	0x3e5743a5	0.21021898
144	0xbef7514c	-0.48304212
145	0x3da24163	0.07922628
146	0xbe172b5a	-0.14762631
147	0x3eab96a1	0.33513358
148	0x3e03cc18	0.12870824
149	0xbebafee8	-0.36522603
150	0xbe4152ac	-0.18879193
151	0x3e992341	0.2990971
152	0xbeb2d06f	-0.34924647
153	0xbe8c9781	-0.27459338
154	0xbde1fb8b	-0.11034306
155	0x3e8e5b0d	0.2780384
156	0x3e4b22a3	0.19837432
157	0x3e279d11	0.1636851
158	0xbce13922	-0.027493063
159	0xbe4f9db9	-0.2027501
160	0xbe2fb52a	-0.17158952
161	0x3e89da2c	0.26924264
162	0xbe5d43b1	-0.21607853
163	0x3e530ac9	0.20609583
164	0xbdba649f	-0.09101223
165	0xbe2b288c	-0.16714686
166	0x3e519da9	0.20470299
167	0xbdd513e9	-0.10404188
168	0x3e89c574	0.26908457
169	0x3e4837e7	0.19552575
170	0xbebbccd9	-0.36679724
171	0x3d0a7258	0.033800453
172	0x3ec1b25d	0.37831393
173	0x3daad241	0.08340884
174	0x3e19a9aa	0.15006128
175	0xbe35a15d	-0.17737336
176	0xbdc0fd06	-0.094232604
177	0x3e05e074	0.13073903
178	0xbf0263ce	-0.5093354
179	0xbe5911fa	-0.21198264
180	0xbf8605e0	-1.0470543
181	0x3d982a2a	0.07429917
182	0xbe9678da	-0.29389077
183	0xbe830aeb	-0.25594267
184	0xbe4cc65c	-0.19997543
185	0xbe6068a8	-0.21914923
186	0x3e7e78ac	0.2485072
187	0xbe6d3cfa	-0.23167792
188	0xbdacb925	-0.08433751
189	0xbce88570	-0.02838394
190	0x3eb8e958	0.36115527
191	0x3ead1e73	0.33812293
192	0x3c56432a	0.013077537
193	0x3e0c4a0e	0.13700125
194	0x3e342588	0.17592442
195	0xbdc4a763	-0.09602239
196	0xbb324886	-0.0027203872
197	0xbf111163	-0.56667155
198	0xbe056c2d	-0.13029547
199	0xbe0900a8	-0.13379157
200	0x3c93bc80	0.01803422
201	0x3ed947c0	0.42437553
202	0x3da1984a	0.07890375
203	0xbeb1c83b	-0.34723076
204	0xbe88e542	-0.2673741
205	0x3ca7bdf4	0.020476319
206	0xbe5c414e	-0.21509287
207	0x3d496f6c	0.049178526
208	0xbd5472e5	-0.051867384
209	0x3eb75189	0.35804394
210	0x3dda1cbd	0.10650013
211	0xbe1f3699	-0.15548171
212	0xbdfa33c4	-0.12216905
213	0x3c0a482f	0.0084400615
214	0xbdf59be3	-0.11992624
215	0xbdae56dc	-0.08512661
216	0xbc7e7222	-0.015530141
217	0x3e93d502	0.2887345
218	0x3e767f6a	0.24072042
219	0xbd9ef420	-0.07761407
220	0xbe56ab95	-0.20963891
221	0xbef65cc8	-0.4811766
222	0xbde74032	-0.11291541
223	0xbe86040b	-0.2617496
224	0xbeb128dd	-0.3460149
225	0xbf273de0	-0.6532879
226	0x3e22f456	0.1591352
227	0x3ea648dc	0.32477462
228	0xbe8d50a5	-0.2760059
229	0x3eb9e4ae	0.3630728
230	0x3c2781f6	0.010223856
231	0xbe350a61	-0.1767974
232	0x3dbdf7a3	0.092757486
233	0x3eb95610	0.36198473
234	0xbcfa42f9	-0.030549513
235	0xbeb069f8	-0.34455848
236	0xbebeacdb	-0.37241253
237	0x3e0919c6	0.13388738
238	0xbd8cdc0c	-0.06877908
239	0xbe0983fa	-0.13429251
240	0xbd361dca	-0.044462003
241	0x3df9bcc5	0.12194208
242	0x3ea904e8	0.33011556
243	0xbf066e38	-0.5251193
244	0xbedad5bf	-0.427412
245	0xbe419797	-0.18905483
246	0xbe8286d3	-0.25493488
247	0xbda73068	-0.0816353
248	0x3c03de22	0.008048566
249	0x3e4adfef	0.19811986
250	0x3ea1eb5c	0.31624877
251	0xbdf723da	-0.12067385
252	0xbe8d3454	-0.27578986
253	0xbe18dd6f	-0.1492822
254	0x3d27f3ed	0.04100411
255	0xbd8e8942	-0.069597736

input_layer.bias f4 [256]
0	0xbdd1cc6d	-0.10244069
1	0x3e6d7e0c	0.23192614
2	0x3eeeca94	0.4663893
3	0xbe919571	-0.28434327
4	0x3ecca616	0.39970464
5	0xbe9045dd	-0.281783
6	0xbe4e0d5e	-0.20122287
7	0x3e8d944d	0.27652207
8	0xbddd80cc	-0.10815582
9	0x3e2db934	0.1696518
10	0xbda4b297	-0.08041876
11	0x3e43de58	0.19127786
12	0x3ecb2daf	0.3968329
13	0xbe261c36	-0.16221699
14	0xbe4c57f2	-0.19955423
15	0xbeb249e1	-0.3482199
16	0x3d1af835	0.037834365
17	0x3df330cb	0.11874541
18	0x3e03fd3e	0.12889573
19	0xbdc24af2	-0.09486951
20	0x3e3986a0	0.18117762
21	0xbd69ada6	-0.05705037
22	0xbe2fde69	-0.17174686
23	0x3e0eb58c	0.13936442
24	0x3e8b8d23	0.27256116
25	0xbe858808	-0.26080346
26	0xbe4e7149	-0.20160402
27	0x3ec6ac5c	0.38803375
28	0x3d4fe9d6	0.050760113
29	0xbe621cba	-0.22081271
30	0xbe33f457	-0.17573677
31	0x3e48d086	0.19610795
32	0x3e65ef46	0.22454557
33	0x3dac4bca	0.08412893
34	0xbe8eb631	-0.27873376
35	0x3e17b8b5	0.14816554
36	0xbe63ab56	-0.22233328
37	0x3e6586f5	0.22414763
38	0x3e883d02	0.26609045
39	0xbdaa5db0	-0.08318651
40	0x3db8d5f5	0.09025184
41	0xbd9d2a57	-0.07674091
42	0x3be5b9ce	0.007010675
43	0xbd6dbfc7	-0.05804422
44	0x3eb1d3fe	0.3473205
45	0xbe88a6a9	-0.26689652
46	0x3d40eeef	0.047102865
47	0x3e2f0f1a	0.17095605
48	0x3e37e37a	0.17957869
49	0xbecd42b0	-0.4008994
50	0xbe658064	-0.22412258
51	0xbe86d3e7	-0.26333544
52	0x3e6cfe32	0.23143843
53	0xbe5e498b	-0.21707742
54	0x3db8c5d5	0.090221085
55	0x3e2957b6	0.16537365
56	0xbe3852cb	-0.18000333
57	0x3eb4b872	0.3529697
58	0xbeb746e5	-0.35796276
59	0xbebe2600	-0.37138367
60	0x3e61cb84	0.22050291
61	0x3e8464cb	0.2585815
62	0x3e21fe83	0.15819745
63	0xbdb270f7	-0.087129526
64	0x3d83d172	0.06436433
65	0xbea4c74e	-0.32183307
66	0xbe8236e1	-0.25432494
67	0xbe7c23f5	-0.24623092
68	0xbe451d6e	-0.19249508
69	0xbe996f50	-0.29967737
70	0x3dd988a4	0.10621765
71	0xbeca9772	-0.3956867
72	0xbddca561	-0.10773731
73	0x3eb89dc4	0.36057866
74	0x3d84ec04	0.06490329
75	0xbe13d50a	-0.14436737
76	0xbcaea560	-0.021319091
77	0x3dd7671c	0.105177134
78	0x3e68f4fa	0.22749701
79	0x3eae65ab	0.34061942
80	0xbe92b9c3	-0.2865735
81	0xbe29c1a1	-0.1657777
82	0xbe875687	-0.26433203
83	0x3e2e3878	0.17013729
84	0xbe80ef47	-0.25182554
85	0x3e8c9f0b	0.2746509
86	0xbe0efa9c	-0.13962787
87	0xbd806927	-0.06270056
88	0xbe8fe662	-0.28105456
89	0xbe76b39b	-0.24091952
90	0xbe648cd9	-0.22319354
91	0x3d9ba605	0.07600025
92	0x3e3bfb85	0.18357666
93	0x3dd1fc0f	0.102531545
94	0xbe6b909e	-0.23004386
95	0xbe87b995	-0.26508775
96	0xbe88f1da	-0.26747018
97	0xbd831cbe	-0.064019665
98	0x3df19a15	0.11796967
99	0xbe990adf	-0.29891106
100	0x3d8e4ab6	0.06947844
101	0x3e65c511	0.22438456
102	0xbe291ed2	-0.16515663
103	0xbdbccb88	-0.09218508
104	0x3e3237ca	0.17404094
105	0xbdb23456	-0.087013885
106	0xbdaaf4ab	-0.08347448
107	0xbe16b6a4	-0.1471811
108	0x3e346e16	0.1762012
109	0xbdd8e750	-0.10590994
110	0xbe8cac12	-0.2747503
111	0xbe76e91a	-0.24112359
112	0x3e2fbacc	0.17161101
113	0x3e97fd35	0.2968537
114	0x3cdf664c	0.027270459
115	0x3e61b615	0.22042115
116	0xbea3c473	-0.31985816
117	0x3eadb2d1	0.3392549
118	0x3ea20711	0.31646016
119	0xbda4964e	-0.08036481
120	0x3e7fecd6	0.2499269
121	0x3e602721	0.21889926
122	0x3e8603d6	0.26174802
123	0xbd9d532c	-0.076818794
124	0x3e580120	0.21094179
125	0x3ea7e316	0.3279044
126	0x3d8d067e	0.06886004
127	0xbe8e781c	-0.2782601
128	0xbe6eafec	-0.23309296
129	0xbe95131a	-0.29116136
130	0x3ea73a4e	0.3266167
131	0xbe4e6b77	-0.20158182
132	0xbe066324	-0.13123757
133	0xbe13a508	-0.14418423
134	0x3e982d09	0.2972186
135	0xbe9bd95c	-0.3043927
136	0xbe4a993a	-0.19785014
137	0x3d895f86	0.06707673
138	0xbe6ce09f	-0.23132561
139	0xbdbfbf24	-0.09362629
140	0xbe95225a	-0.2912777
141	0xbe4fdfdf	-0.20300244
142	0xbe1525c5	-0.14565189
143	0x3e51e5c6	0.20497808
144	0x3ade9938	0.0016982919
145	0xbeb62d1b	-0.35581288
146	0xbdd85f1d	-0.105650164
147	0xbebc9dba	-0.36839086
148	0x3d40acfe	0.04703998
149	0x3e6e1597	0.23250423
150	0x3d9c7541	0.07639552
151	0x3da4d608	0.08048636
152	0xbdc86bf0	-0.097862124
153	0xbd75fbe0	-0.06005466
154	0xbe90af97	-0.28258964
155	0xbe5a3315	-0.21308549
156	0xbe9aaee5	-0.3021156
157	0xbe4ef7d2	-0.20211723
158	0x3d2a6f66	0.041610144
159	0x3d96c42f	0.07361638
160	0x3ebdf0a8	0.3709767
161	0xbe92af57	-0.286494
162	0xbe69a3e8	-0.22816432
163	0x3dc65146	0.096834704
164	0x3d96274d	0.07331715
165	0xbe4f3260	-0.2023406
166	0x3ec03945	0.37543693
167	0x3ddf696d	0.1090878
168	0x3d85a379	0.065253206
169	0x3ab683c1	0.0013924764
170	0xbe6c2079	-0.23059262
171	0x3d901435	0.07035104
172	0xbd113fe7	-0.035461333
173	0x3e5ea500	0.2174263
174	0xbe838120	-0.25684452
175	0x3cbda0df	0.023147998
176	0x3c79ca1b	0.01524594
177	0x3e824260	0.25441265
178	0x3e37a5a9	0.17934288
179	0x3e846e76	0.25865525
180	0x3e49bdb5	0.19701274
181	0x3b167373	0.0022956997
182	0x3c518143	0.012787166
183	0x3e9c781b	0.30560383
184	0x3ea3647a	0.31912595
185	0xbe8c408b	-0.27392992
186	0x3e2c801a	0.16845742
187	0xbd950d49	-0.072779246
188	0xbec3511b	-0.38147816
189	0xbe068b63	-0.1313911
190	0xbd33afff	-0.043869015
191	0x3eb7662f	0.35820147
192	0xbe2453de	-0.16047618
193	0x3e121f6b	0.14269798
194	0x3db0126a	0.08597262
195	0xbd8967f4	-0.067092806
196	0xbe649f2e	-0.22326347
197	0x3e16ac41	0.14714147
198	0xbd82e518	-0.063913524
199	0xbe1a008e	-0.15039274
200	0xbd4d459b	-0.05011521
201	0x3e4810ce	0.1953766
202	0x3d8cc66d	0.06873784
203	0xbeb9d4f6	-0.3629529
204	0x3e827f6a	0.25487834
205	0xbe84a3d2	-0.25906235
206	0xbdc70799	-0.09718246
207	0x3e99a27f	0.30006787
208	0x3e5bc973	0.21463566
209	0xbe84d949	-0.25947025
210	0xbe363b15	-0.17795976
211	0xbcefb409	-0.029260652
212	0x3eb1cf08	0.34728265
213	0x3e014f01	0.12627794
214	0xbe317f85	-0.17333801
215	0xbdf09e97	-0.117489986
216	0xbdb5678a	-0.08857639
217	0xbe978603	-0.2959443
218	0x3e8f7f3a	0.28026754
219	0x3e21aac4	0.15787798
220	0xbe4e6d8d	-0.20158978
221	0xbe2dd46b	-0.16975562
222	0xbc0e45b4	-0.008683611
223	0x3ea341b3	0.31886062
224	0xbe2ac5a3	-0.16676955
225	0x3d2b4f89	0.041823898
226	0x3ea426e2	0.32060915
227	0xbe602f2e	-0.21892998
228	0xbed65654	-0.41862738
229	0xbcfa95fa	-0.030589093
230	0xbd6eb866	-0.058281325
231	0xbe0b56f8	-0.13607395
232	0x3d833f44	0.06408551
233	0xbe18086e	-0.14846966
234	0x3d6078ba	0.054802634
235	0xbea61a1d	-0.32441798
236	0xbe8b7571	-0.27238038
237	0x3e0fac27	0.14030515
238	0xbdcf644b	-0.10126551
239	0x3dc9c228	0.098514855
240	0xbaeec9b4	-0.0018218071
241	0xbdf00017	-0.11718767
242	0x3eb60e41	0.3555775
243	0x3e6403d3	0.22267084
244	0x3d4f0606	0.050542854
245	0xbe2bb36e	-0.16767666
246	0xbe610474	-0.21974355
247	0xbe527788	-0.2055341
248	0xbe9dfd5c	-0.3085736
249	0xbc307ffb	-0.0107727
250	0xbe0c6f78	-0.13714397
251	0x3ecbeb14	0.39827788
252	0xbe529625	-0.20565088
253	0xbd71884c	-0.058967873
254	0x3e90236f	0.28152034
255	0x3ded0437	0.115730695

output_layer.weight f4 [1, 256]
0	0x3e1dadd0	0.15398335
1	0xbcf5c6df	-0.030002056
2	0xbd9787e8	-0.07398969
3	0xbde10de8	-0.109889805
4	0xbda59b3b	-0.080862485
5	0xbedf99c8	-0.43672013
6	0x3e527de6	0.20555839
7	0x3e520050	0.20507932
8	0x3da947bd	0.08265636
9	0x3dc3847e	0.09546755
10	0xbdbdf563	-0.092753194
11	0xbd8e17ca	-0.06938131
12	0xbdab9ab3	-0.08379116
13	0x3e6f87b7	0.23391615
14	0x3d0efac0	0.034907103
15	0xbd8c9ad1	-0.068654664
16	0xbe8f1711	-0.27947286
17	0xbc85a6c5	-0.016314873
18	0xbdc43d36	-0.095819876
19	0x3bf78fae	0.0075549698
20	0xbd153e77	-0.036436524
21	0x3cbe0d8b	0.023199817
22	0x3ea2ca4e	0.3179497
23	0xbd9fd14d	-0.07803593
24	0xbd912d13	-0.07088675
25	0x3e4b1d5c	0.19835418
26	0x3e118e13	0.14214353
27	0xbd98e974	-0.07466403
28	0x3e10787f	0.14108466
29	0x3dda70f6	0.10666077
30	0x3e77b66a	0.24190679
31	0x3ace213c	0.0015726457
32	0xbcb506a0	-0.022097886
33	0x3ca3f6c7	0.020015134
34	0xbd2b2b52	-0.04178936
35	0xbd26ec3e	-0.04075264
36	0xbd916217	-0.07098787
37	0x3e0de032	0.13855055
38	0xbd14c1b3	-0.03631754
39	0x3db4c618	0.08826846
40	0xbdd1e135	-0.10248033
41	0x3d71ae2e	0.059004
42	0xbcd172a7	-0.025567366
43	0x3ea13768	0.31487584
44	0xbd236b24	-0.0398971
45	0xbcddb2bb	-0.027062764
46	0xbea9e7d2	-0.33184677
47	0xbd6884a0	-0.056767106
48	0x3da0ac9f	0.07845425
49	0xbe09728c	-0.13422602
50	0xbb5de81f	-0.0033860279
51	0xbe1f3e00	-0.15550995
52	0xbd92583a	-0.07145734
53	0xbe4e6a93	-0.20157842
54	0xbd2902a6	-0.04126229
55	0xbc95e57f	-0.018297909
56	0x3e297053	0.16546755
57	0x3e91a1f2	0.28443867
58	0x3ddca37b	0.10773369
59	0xbd8e03fb	-0.06934353
60	0xbcbac709	-0.022799985
61	0xbd806b05	-0.06270412
62	0x3e4671e1	0.19379379
63	0xbd9c5e7b	-0.07635208
64	0x3e42a791	0.19009234
65	0x3d87f803	0.06639101
66	0x3e1f9dd9	0.15587558
67	0xbd68c9e9	-0.05683318
68	0x3e50542d	0.2034461
69	0x3e90a531	0.2825103
70	0x3dc4dfbb	0.09612986
71	0xbc599253	-0.013279515
72	0xbe248967	-0.1606804
73	0xbd162d0b	-0.03666405
74	0xbd01c9a8	-0.031686455
75	0x3e2eb2a5	0.17060335
76	0xbea5cb4a	-0.3238166
77	0xbd3ffa01	-0.04686928
78	0xbcde262f	-0.027117817
79	0xbd6a70e8	-0.057236582
80	0x3d88c754	0.06678644
81	0x3db11508	0.086465895
82	0x3e78f39b	0.24311678
83	0xbcc366f0	-0.023852795
84	0x3e5bb132	0.21454313
85	0xbab97fd1	-0.0014152472
86	0x3dab4205	0.083622016
87	0xbdc7fd9b	-0.09765168
88	0x3e5f522f	0.21808694
89	0x3e2b7bc4	0.16746432
90	0xbe615966	-0.22006759
91	0xbe4ec86c	-0.20193642
92	0x3e36c0bc	0.1784696
93	0xbdfcc6e7	-0.12342625
94	0xbe0a922d	-0.13532324
95	0x3d8aad6c	0.06771359
96	0x3cd3cebe	0.025855418
97	0xbd7e8408	-0.062137634
98	0xbd87d90c	-0.06633195
99	0x3e73197e	0.23740193
100	0x3d81936d	0.06326947
101	0xbcb2c9da	-0.021824766
102	0xbda82de8	-0.08211881
103	0x3ea342c1	0.31886867
104	0xbca0942b	-0.019601902
105	0x3e3c92c0	0.18415356
106	0x3f10dcb2	0.56586754
107	0x3e9ea51f	0.30985352
108	0x3e62bfb4	0.22143441
109	0x3add86c2	0.0016901123
110	0x3e92fac6	0.2870695
111	0x3e853e0a	0.26023895
112	0x3e448253	0.1919034
113	0xbd0e8691	-0.0347963
114	0x3ea7c01d	0.32763758
115	0xbdf97091	-0.121796735
116	0xbe1fe779	-0.15615644
117	0xbce24ad1	-0.027623566
118	0x3e9f4063	0.3110381
119	0xbe02222c	-0.12708348
120	0xbdf261ee	-0.11835085
121	0x3dac3bc1	0.08409835
122	0xbc863afd	-0.01638555
123	0x3d6a209b	0.05716
124	0xbd860438	-0.065437734
125	0x3ef2e0cc	0.4743713
126	0x3d2e09ce	0.04248982
127	0x3d0afe2c	0.033933803
128	0xbd9ddda7	-0.077082925
129	0x3d8fc1bd	0.070193745
130	0xbc14bf47	-0.009078807
131	0x3e946ce3	0.28989324
132	0x3e1fa46a	0.15590063
133	0x3d83519e	0.064120516
134	0x3eae0caf	0.33994052
135	0xbc68ca16	-0.014208337
136	0x3d9edd4c	0.07757053
137	0x3b44edfe	0.003004908
138	0x3dc85787	0.097823195
139	0x3d904624	0.07044628
140	0xbd83f9c9	-0.06444127
141	0xbd471e26	-0.048612736
142	0x3d25237f	0.040317055
143	0xbd204690	-0.039129794
144	0x3e8504f5	0.25980344
145	0x3d3dd4dc	0.046345577
146	0x3d8cbede	0.068723425
147	0x3d141d42	0.036160715
148	0x3d8151c8	0.06314427
149	0xbccc3406	-0.02492715
150	0xbd2b7a42	-0.04186464
151	0x3c0da470	0.008645162
152	0x3e6ba5a7	0.2301241
153	0xbe990f8c	-0.29894674
154	0x3dc09b0a	0.09404571
155	0x3e48ca5e	0.19608447
156	0x3e28d83f	0.16488741
157	0x3e0c652e	0.13710472
158	0xbe4c4340	-0.19947529
159	0xbea915d5	-0.3302447
160	0xbd6d15fc	-0.057882294
161	0xbe64234f	-0.22279094
162	0x3c99bd05	0.01876689
163	0xbe87dff8	-0.26538062
164	0xbe811e00	-0.252182
165	0x3e4afe6f	0.19823621
166	0xbdae1879	-0.085007615
167	0xbdc6a123	-0.09698703
168	0x3d94ac1d	0.072593905
169	0xbe01bfd4	-0.12670833
170	0xbdbf6309	-0.09345061
171	0x3eb12566	0.34598845
172	0xbd933c09	-0.07189185
173	0xbca20d5f	-0.019781766
174	0x3da13a5e	0.07872461
175	0xbdb6124b	-0.08890208
176	0x3cd639ae	0.02615055
177	0x3c1176c9	0.008878418
178	0xbd9d5cb3	-0.076836966
179	0x3e4f8068	0.20263827
180	0xbb9050a9	-0.0044041467
181	0x3e8ba347	0.27273008
182	0xbd710d93	-0.058850836
183	0x3e49109f	0.19635247
184	0x3e879b4d	0.26485673
185	0x3e26ab63	0.16276316
186	0x3e2e736a	0.17036214
187	0x3e9a3f63	0.30126485
188	0x3d35293b	0.044228774
189	0x3e0442ad	0.1291606
190	0xbc2f350d	-0.010693801
191	0xbda1b0ff	-0.078950875
192	0x3df9efdd	0.122039534
193	0x3d845845	0.064621486
194	0x3d502d57	0.05082449
195	0x3e6ac523	0.22926764
196	0xbdcd0f8d	-0.10012732
197	0xbd8edd71	-0.0697583
198	0x3da257d9	0.07926912
199	0x3dc89f01	0.097959526
200	0x3e172e24	0.14763695
201	0xbe14530a	-0.14484802
202	0xbe1356c6	-0.1438857
203	0xbdc5ea22	-0.09663798
204	0xbc42e965	-0.011896466
205	0x3e1cdfc9	0.15319742
206	0x3e50a2e2	0.20374635
207	0xbd26ab7b	-0.04069088
208	0x3e86c1a3	0.26319608
209	0xbe8de255	-0.2771174
210	0x3e3a2358	0.18177545
211	0xbdb85f69	-0.09002573
212	0xbdf62e12	-0.12020506
213	0xbb4045de	-0.002933852
214	0xbe03f6ff	-0.1288719
215	0xbdd22231	-0.10260428
216	0x3d8f7a60	0.07005763
217	0x3e79cf63	0.24395518
218	0x3e339bce	0.17539904
219	0xbbf522d7	-0.00748096
220	0x3e46b6fe	0.19405743
221	0xbd80e3f8	-0.062934816
222	0xbb47e099	-0.003049886
223	0xbd7e50fa	-0.062088944
224	0x3f1b9fc5	0.60790664
225	0xbe2b1881	-0.16708566
226	0xbd1775f7	-0.036977734
227	0xbdbedc2b	-0.093193375
228	0x3d0eefe6	0.034896754
229	0xbe584eb4	-0.21123773
230	0x3bc3fd48	0.005981121
231	0x3d9745b9	0.073863454
232	0xbdebd654	-0.11515489
233	0xbd6190c6	-0.055069707
234	0xbc21d5c3	-0.009877625
235	0xbd45ca84	-0.048288837
236	0x3eafcba8	0.34335065
237	0x3e4e880f	0.2016909
238	0x3e280e5a	0.16411725
239	0xbd7fa66c	-0.06241457
240	0xbdd9cc27	-0.10634642
241	0x3e6b0484	0.22950941
242	0xbdb6128b	-0.088902555
243	0x3e0907d5	0.13381894
244	0x3b51a410	0.0031988658
245	0x3e00b210	0.12567925
246	0x3e4bf604	0.19918066
247	0xbe4ece56	-0.20195898
248	0x3da7528f	0.08170044
249	0xbe876c9c	-0.2645005
250	0xbd8a175d	-0.067427374
251	0xbd8882da	-0.06665583
252	0x3d35097b	0.044198494
253	0x3e20ca25	0.15702112
254	0x3c34defc	0.011039492
255	0xbe1ae81f	-0.1512761
