reinforce/best_reinforce_model.pt (torch, 75658 bytes, 6 tensors)

network.0.weight f4 [128, 8]
0	0xbe5ad1be	-0.21369073
1	0xbe518d3f	-0.20464037
2	0xbd361811	-0.044456545
3	0x3d4b6d2a	0.049664654
4	0xbccd0ac0	-0.02502954
5	0xbe80d0e5	-0.25159374
6	0x3e200bfc	0.15629572
7	0xbec210b3	-0.37903365
8	0xbc9ad8a0	-0.018902123
9	0x3df64bfb	0.12026211
10	0xbdf3fd68	-0.11913568
11	0x3f1b9cf5	0.6078637
12	0x3f0a99ea	0.54141104
13	0xbda74cf0	-0.081689715
14	0x3c3ac357	0.011399112
15	0xbda19640	-0.07889986
16	0x3db75f19	0.08953685
17	0x3e8430fe	0.25818628
18	0xbe613e5c	-0.21996444
19	0x3e88a24b	0.2668632
20	0xbe4d2a02	-0.20035556
21	0xbe8bf5da	-0.27336007
22	0xbe96ef43	-0.29479417
23	0xbdbd286a	-0.09236224
24	0x3e2fc694	0.17165595
25	0xbda042c2	-0.07825233
26	0x3e5e47cb	0.21707074
27	0x3f2350f2	0.6379539
28	0xbd8a1f20	-0.06744218
29	0x3e0e69aa	0.13907495
30	0x3e0e2796	0.13882288
31	0xbd7b3562	-0.061330207
32	0xbd91a8fe	-0.07112311
33	0x3e767cdd	0.24071069
34	0xbe8df38c	-0.27724874
35	0xbec3f29f	-0.38271043
36	0x3f27f893	0.6561367
37	0xbe1801e5	-0.14844473
38	0xbe458376	-0.1928843
39	0x3e66a2da	0.2252306
40	0xbe23b8d1	-0.1598847
41	0x3dae8322	0.08521105
42	0xbed95e6e	-0.42454857
43	0x3e201884	0.15634352
44	0x3f18ae01	0.5964051
45	0x3ef861b2	0.48512036
46	0x3ea35e65	0.31907955
47	0x3e3cf60f	0.18453239
48	0xbe784715	-0.24245866
49	0x3e934f89	0.28771618
50	0xbe883e19	-0.26609877
51	0xbe223cc7	-0.15843497
52	0xbced9a80	-0.029004335
53	0xbebf36a1	-0.37346366
54	0xbe84c474	-0.25931132
55	0xbd95f1dc	-0.07321522
56	0x3e9b84f4	0.30374873
57	0xbe594d97	-0.21221004
58	0xbe864ff5	-0.26232877
59	0xbe3b21b5	-0.18274577
60	0x3ebcea1b	0.36897358
61	0x3e6cb1fc	0.2311477
62	0x3e233964	0.15939862
63	0xbe09b163	-0.13446574
64	0x3e76c73e	0.24099442
65	0xbb04c080	-0.002025634
66	0xbdcd3563	-0.10019948
67	0xbe572fa9	-0.21014275
68	0x3e99fe00	0.300766
69	0x3ee22dc2	0.44175535
70	0xbdb4c78e	-0.088271245
71	0xbe8c0ba4	-0.2735263
72	0x3e690aec	0.22758073
73	0x3e99cdfc	0.30039966
74	0xbe22dc89	-0.1590444
75	0x3e77cc99	0.24199142
76	0x3e27b80d	0.16378804
77	0x3e7d13a9	0.24714531
78	0x3c21c7db	0.009874309
79	0x3ed2cda2	0.4117251
80	0x3d8e393a	0.06944509
81	0x3e900206	0.28126544
82	0x3e67b61a	0.2262806
83	0xbe892dc1	-0.2679272
84	0x3f075091	0.5285731
85	0x3e85d9e1	0.2614279
86	0xbe286bb4	-0.16447335
87	0xbdfd63a6	-0.12372522
88	0x3e8de0a9	0.27710465
89	0x3cca2977	0.024677975
90	0x3ea7ca71	0.32771638
91	0xbed1243f	-0.40847966
92	0x3cdeb5de	0.02718633
93	0x3d2bf7dc	0.041984424
94	0xbe081ea7	-0.13292943
95	0xbb936288	-0.00449783
96	0x3ed1f669	0.4100831
97	0x3d924a45	0.07143072
98	0x3d98858c	0.07447347
99	0x3e9cb4cd	0.3060669
100	0xbf1b4a26	-0.60660017
101	0x3e77cbd9	0.24198855
102	0x3e701296	0.2344459
103	0x3e6eb39f	0.23310708
104	0x3be31990	0.0069305375
105	0xbdc0c054	-0.09411684
106	0x3cc2df7b	0.023788204
107	0x3e1d25b2	0.15346411
108	0x3d4c0bc8	0.049815923
109	0x3e98a4a6	0.29813117
110	0x3de06e7b	0.109585725
111	0xbcfd36cb	-0.030909916
112	0x3e6169b2	0.22012976
113	0xbeaa8f2a	-0.3331235
114	0x3e97bb7a	0.2963522
115	0xbe8af17d	-0.27137366
116	0xbe41d4d0	-0.18928838
117	0x3e236ac1	0.15958692
118	0xbeaa6c74	-0.33285868
119	0xbe3f26bd	-0.18667121
120	0xbddf1089	-0.10891826
121	0xbeb24695	-0.34819475
122	0x3da118a4	0.07866028
123	0x3ea5ce36	0.3238389
124	0xbdfb10f5	-0.12259094
125	0x3e86fd05	0.26364914
126	0x3d983d56	0.07433574
127	0x3e981cca	0.29709464
128	0x3dc778fd	0.097398736
129	0xbc8a9062	-0.01691455
130	0x3e8b9919	0.27265242
131	0x3ea72e34	0.32652438
132	0xbee6d936	-0.45087594
133	0x3de82d49	0.113367625
134	0xbe86fef3	-0.26366386
135	0xbdccdaa1	-0.10002638
136	0x3df10252	0.11768021
137	0xbe412e5e	-0.18865344
138	0x3eaef0fc	0.3416823
139	0xbebcf88b	-0.36908373
140	0xbc9118ef	-0.017712085
141	0xbe15b1a1	-0.14618541
142	0x3dd50bf3	0.1040267
143	0xbe3853c5	-0.18000706
144	0x3ca180f7	0.019714816
145	0xbd9da8e4	-0.07698229
146	0xbe739760	-0.23788214
147	0x3e439e71	0.1910341
148	0xbe032af9	-0.12809362
149	0xbd3d7e30	-0.04626292
150	0x3e0933c8	0.13398659
151	0xbe952f05	-0.29137436
152	0x3db26d5f	0.08712267
153	0xbd883f62	-0.06652714
154	0x3e3c7fa3	0.18408065
155	0xbedfe1c3	-0.4372693
156	0xbf1bb54b	-0.60823506
157	0xbecb16c7	-0.39665815
158	0x3bfde2f5	0.0077480027
159	0xbe2c64af	-0.16835283
160	0x3dacb282	0.08432485
161	0xbe4313f4	-0.1905058
162	0xbe830ebc	-0.2559718
163	0xbe48c70b	-0.19607179
164	0x3edc3222	0.43006998
165	0xbed4ca7d	-0.41560736
166	0xbe2966ae	-0.16543075
167	0x3e41c97a	0.18924513
168	0xbdbd89ab	-0.09254774
169	0xbcbceed9	-0.02306311
170	0xbeb9890b	-0.36237368
171	0x3e3afb65	0.18259962
172	0x3db02742	0.08601238
173	0xbe1e5d75	-0.15465339
174	0x3d686782	0.056739338
175	0x3eadd27b	0.33949646
176	0xbd80d1fa	-0.0629005
177	0xbdda3a44	-0.106556445
178	0x3e477557	0.19478355
179	0x3df219e5	0.11821345
180	0xbe4dcca5	-0.20097597
181	0x3d6f00fd	0.058350552
182	0xbe5dd2d4	-0.21662456
183	0xbd38f3e0	-0.045154452
184	0x3e972278	0.29518485
185	0xbe5c64ce	-0.21522829
186	0x3dca5d79	0.0988111
187	0xbead120c	-0.3380283
188	0xbe6ae735	-0.22939761
189	0xbecb0212	-0.39650017
190	0xbdccd270	-0.10001075
191	0xbe7c5a96	-0.24643931
192	0xbc83fb41	-0.016111018
193	0x3e61e3d0	0.2205956
194	0x3eefda58	0.4684627
195	0x3ea96723	0.330865
196	0xbf249ff3	-0.64306563
197	0xbe3c2d66	-0.18376693
198	0x3e83b730	0.25725698
199	0x3e94dcd2	0.29074723
200	0xbea6c78f	-0.32574126
201	0xbeaf74d6	-0.34268826
202	0x3e65871e	0.22414824
203	0x3e912a37	0.2835252
204	0x3da85266	0.08218841
205	0xbc2439dc	-0.01002356
206	0x3ecb80a7	0.3974659
207	0x3db3a99e	0.08772586
208	0x3c4cec47	0.012507505
209	0x3e91a133	0.28443298
210	0x3e3d30aa	0.18475595
211	0x3eae95e7	0.3409874
212	0x3e9d0f26	0.3067562
213	0x3eaf2ffb	0.34216294
214	0xbc2a7823	-0.010404619
215	0xbe1727dd	-0.147613
216	0x3e3a5a8a	0.181986
217	0xbe57c41b	-0.21070902
218	0x3e53ec82	0.2069569
219	0xbe6db94e	-0.2321522
220	0xbedf0da4	-0.43565094
221	0xbf01a857	-0.5064749
222	0xbe2456dd	-0.1604876
223	0x3d9709a3	0.07374885
224	0xbe407a11	-0.18796565
225	0x3e9e7996	0.30952138
226	0xbef1b6f5	-0.47209898
227	0x3ebeea0f	0.37287948
228	0x3efe0a7d	0.49617377
229	0x3ecb2cdb	0.3968266
230	0xbd3a4ebb	-0.04548524
231	0xbe56dd6c	-0.20982903
232	0x3ea48fd6	0.32140988
233	0xbe66ddb0	-0.22545505
234	0xbb9c2d9e	-0.00476618
235	0xbe9a0f9b	-0.3009003
236	0xbe3d03c6	-0.1845847
237	0xbe0224a3	-0.12709288
238	0xbd81f212	-0.063449994
239	0x3d76be2d	0.06023996
240	0xbe370fe7	-0.1787716
241	0xbe5946b9	-0.21218385
242	0xbe28ed1f	-0.16496705
243	0x3dfd1beb	0.123588406
244	0xbd49a895	-0.049233038
245	0xbea67dbd	-0.32517806
246	0x3db78fbc	0.08962962
247	0xbe2b8c5d	-0.16752763
248	0xbe1db9e3	-0.15402941
249	0xbcc7c84d	-0.024387503
250	0x3ec47234	0.3836838
251	0xbe30a4c8	-0.17250359
252	0x3ee51e2d	0.44749585
253	0x3eafcf93	0.34338054
254	0xbd70cf36	-0.05879136
255	0xbcfad71b	-0.030620148

network.0.bias f4 [128]
0	0xbe3f43a1	-0.18678142
1	0x3e61bb66	0.22044143
2	0xbb8f4278	-0.0043719374
3	0x3ebd8920	0.3701868
4	0x3d99f6ef	0.07517802
5	0x3e0ff0da	0.14056721
6	0xbeae94a3	-0.34097776
7	0x3e9b010c	0.30274236
8	0x3e924b5b	0.28573117
9	0xbe349888	-0.17636311
10	0xbe845aca	-0.25850517
11	0xbce041d7	-0.027375145
12	0x3e9368c0	0.28790855
13	0xbe89ef3e	-0.2694034
14	0xbec39182	-0.3819695
15	0xbd8a65c3	-0.06757691
16	0x3e33e790	0.17568803
17	0x3cb97e68	0.022643283
18	0xbea6ba8f	-0.32564208
19	0x3e960288	0.29298806
20	0xbc92207d	-0.017837757
21	0xbe80b4e2	-0.25138003
22	0xbe9c27c3	-0.30499086
23	0x3e55c9a6	0.20877704
24	0x3dad1f64	0.08453253
25	0xbbcc39d1	-0.006232478
26	0xbe3591a3	-0.17731337
27	0x3eb61c89	0.35568646
28	0x3ea577e9	0.32318047
29	0x3e8a3182	0.26990896
30	0xbe22bb96	-0.15891871
31	0xb8b03cb4	-8.403641e-05
32	0x3e1e2ca5	0.15446718
33	0xbc974614	-0.018466033
34	0xbd95a9ed	-0.073078014
35	0x3e6d7b29	0.23191513
36	0xbe91f290	-0.28505373
37	0xbcfda1c9	-0.030960934
38	0x3e1dca2d	0.15409155
39	0xbe97640d	-0.2956852
40	0xbd4fced2	-0.05073435
41	0x3eacb1e4	0.3372947
42	0xbdfb6556	-0.12275188
43	0x3e254db7	0.16142927
44	0xbccbd9b5	-0.024884084
45	0x3e96c975	0.29450575
46	0x3e11d566	0.14241561
47	0x3e0c5163	0.13702922
48	0x3e8926e3	0.2678748
49	0x3d4ff1e9	0.050767813
50	0xbe23d33e	-0.15998551
51	0x3d7fca69	0.062448893
52	0x3ba79bb8	0.0051149987
53	0xbd669caa	-0.05630175
54	0x3e519581	0.20467187
55	0x3e6373d0	0.22212148
56	0xbe8f154d	-0.2794594
57	0xbd23dcd6	-0.040005527
58	0xbd36719c	-0.04454194
59	0x3d3124d6	0.04324802
60	0x3ebcd503	0.36881265
61	0x3e94e675	0.29082075
62	0x3d09ec1d	0.03367244
63	0xbe20318f	-0.15643905
64	0xbcff480d	-0.031162286
65	0xbdd74c6a	-0.10512622
66	0x3dc83f7a	0.09777732
67	0xbeb62797	-0.3557708
68	0x3e85c8fe	0.26129907
69	0xbda252ed	-0.07925973
70	0xbe72c607	-0.23708354
71	0x3e14d463	0.14534144
72	0xbe9121dd	-0.28346148
73	0xbebbf8da	-0.36713296
74	0x3e508a27	0.20365201
75	0x3dc616ca	0.096723154
76	0xbdfbe9e2	-0.12300469
77	0xbe5a1b32	-0.21299437
78	0xbe48a703	-0.1959496
79	0x3e479efa	0.19494238
80	0xbe8db8ef	-0.27680156
81	0x3e80cc41	0.25155833
82	0xbe999d73	-0.30002937
83	0x3dc50e08	0.09621817
84	0x3e3f6e1c	0.18694347
85	0x3eb3f1a9	0.3514531
86	0xbd8f8c07	-0.0700913
87	0x3ea91cf8	0.33029914
88	0xbc9b4e88	-0.018958345
89	0x3e42c015	0.19018586
90	0xbd8bbeb0	-0.0682348
91	0x3d79a67e	0.060949795
92	0xbdf9d668	-0.12199098
93	0x3ea8f115	0.3299643
94	0xbe4676be	-0.19381234
95	0x3d203f25	0.03912272
96	0xbd9845d8	-0.07435197
97	0x3ce845b9	0.028353559
98	0xbea5a1ec	-0.323501
99	0xbe9c002b	-0.30468878
100	0x3d62abe0	0.055339694
101	0x3dd7d71c	0.10539076
102	0x3e863f7c	0.2622031
103	0x3e98df7d	0.29858008
104	0xbd99f05f	-0.0751655
105	0xbea46ef9	-0.32115915
106	0xbea48e60	-0.32139874
107	0x3c897594	0.016779698
108	0xbe37acbe	-0.1793699
109	0xbe00bb33	-0.12571411
110	0x3d8eb03f	0.0696721
111	0x3d78fbce	0.060787015
112	0x3d9f1559	0.077677436
113	0xbe5e832c	-0.21729726
114	0x3da1e573	0.07905092
115	0xbebbd93b	-0.3668917
116	0x3e3ffa3c	0.187478
117	0x3c9146c1	0.017733933
118	0x3cef67b1	0.029224249
119	0x3e9ec36d	0.31008473
120	0x3e98f1b8	0.29871917
121	0x3e9413bb	0.28921303
122	0x3db3f0b5	0.087861456
123	0xbdd23a06	-0.10264973
124	0x3ea30b44	0.31844532
125	0xba400872	-0.0007325477
126	0x3e1df918	0.15427053
127	0x3e03714f	0.12836193

network.2.weight f4 [128, 128]
0	0xbd159942	-0.03652311
1	0x3ca10917	0.019657655
2	0xbc739b7c	-0.014868613
3	0xbc10975f	-0.008825152
4	0xbdef74ef	-0.11692225
5	0xbc0b1499	-0.008488798
6	0xbc83ed15	-0.01610426
7	0xbcd92a98	-0.026509568
8	0xbd81cb7f	-0.06337642
9	0x3c5f4edb	0.01362964
10	0x3d9877bf	0.07444715
11	0xbcf5e5d9	-0.030016826
12	0x3d43b0b2	0.04777593
13	0x3d27e143	0.04098631
14	0x3daa6e65	0.08321837
15	0xbd7d244a	-0.061802186
16	0xbcf87d93	-0.030333316
17	0xbac42805	-0.001496554
18	0x3d975367	0.073889546
19	0xbda6abf5	-0.08138267
20	0x3d015a77	0.031580415
21	0xbdc5d5fb	-0.09659954
22	0x3d4f0d6a	0.050549902
23	0xbd8d8b7a	-0.06911369
24	0x3d86387b	0.065537415
25	0xbd443fd6	-0.04791244
26	0xbce3f2d3	-0.027825749
27	0xbd43a1f1	-0.04776186
28	0x3d98e6a4	0.07465866
29	0xbddc03fd	-0.10742948
30	0x3bb2545c	0.0054421853
31	0x3da707a3	0.081557535
32	0xbdc24f73	-0.0948781
33	0x3d3ea4e2	0.046543963
34	0x3c8b062b	0.016970715
35	0xbd218247	-0.039430883
36	0x3b38d167	0.0028200985
37	0xbe0cc8fc	-0.13748544
38	0x3d6f566b	0.058432024
39	0xbcd1bcb8	-0.025602683
40	0x3ce12e94	0.02748803
41	0xbdc7bd14	-0.09752861
42	0xbd9ae8b7	-0.07563918
43	0x3d5dfe00	0.05419731
44	0xbd143015	-0.036178667
45	0x3cbc9af2	0.023023102
46	0xbd088c92	-0.033337183
47	0x3cedf7f0	0.02904889
48	0x3d980169	0.07422144
49	0x3c93ea47	0.018056048
50	0xbd92d283	-0.07169058
51	0xbcc4e192	-0.024033342
52	0xbb15de76	-0.0022868193
53	0x3c8256d0	0.015910536
54	0x3ccb1211	0.024788888
55	0x3d6a18eb	0.05715267
56	0x3b87fcde	0.004150017
57	0x3b4165cc	0.0029510139
58	0xbd257855	-0.04039796
59	0xbd5da5d3	-0.05411322
60	0x3d0b2fb3	0.033981036
61	0x3c4b611e	0.012413291
62	0xbc670a79	-0.014101618
63	0x3cef4968	0.029209808
64	0x3cc2079c	0.023685269
65	0xbd810866	-0.0630043
66	0x3be4763d	0.006972103
67	0x3ab2227a	0.0013590597
68	0xbd953f45	-0.07287458
69	0xbd9a4f2a	-0.075346306
70	0xbd0d58c1	-0.03450847
71	0xbc1ab0bf	-0.009441554
72	0x3d439b62	0.047755606
73	0x3c8aedc8	0.016959086
74	0x3d0f0d73	0.034924936
75	0xbd3f68a5	-0.046730656
76	0x3c71adba	0.014750892
77	0xbd89ab40	-0.067221165
78	0xbcf7b105	-0.030235777
79	0xbd6233cc	-0.05522518
80	0xbd3e1b49	-0.04641274
81	0xbc7ca783	-0.015420797
82	0xbdb0322f	-0.08603322
83	0x3d112c11	0.035442416
84	0xbd85d588	-0.065348685
85	0xbd376efc	-0.044783577
86	0x3d3ce68a	0.046118297
87	0xbddd5e47	-0.108089976
88	0xbd6694b3	-0.056294154
89	0xbd007bbe	-0.03136801
90	0xbce54281	-0.027985813
91	0xbd8be9e9	-0.06831724
92	0xbc105fbc	-0.008811887
93	0x3d2896d5	0.04115947
94	0xbd0660a9	-0.032807026
95	0xbd8d8471	-0.06910027
96	0xbc27d939	-0.010244661
97	0x3bd1867d	0.006394206
98	0xbcde1f0d	-0.027114416
99	0xbd6dce70	-0.058058202
100	0x3cde8ddc	0.027167253
101	0x3c45a201	0.0120625505
102	0xbc3749b8	-0.0111870095
103	0xbdb68635	-0.08912317
104	0xbd8e8f7b	-0.069609605
105	0x3db490db	0.088166915
106	0x3d34f2e5	0.044176955
107	0x3d166584	0.036717907
108	0xbcbf86dd	-0.023379738
109	0x3d27f1b5	0.041001994
110	0xbdaad2e8	-0.083410084
111	0xbd3c15b6	-0.045919143
112	0xbcfa5055	-0.030555883
113	0x3d9da3f3	0.076972865
114	0x3d4925a1	0.04910815
115	0xbdae921c	-0.08523962
116	0xbd2c5c77	-0.04208037
117	0xbd6f1bc9	-0.058376107
118	0xbdc8de9e	-0.09808086
119	0x3d01080e	0.031501822
120	0x3d819637	0.06327479
121	0xbc2c8dce	-0.010531856
122	0xbda7bdb2	-0.081904784
123	0xbd632e44	-0.055464044
124	0xbca59150	-0.020210892
125	0xbe04e864	-0.12979275
126	0xb9901929	-0.00027484566
127	0xbdabf3d1	-0.08396114
128	0xbc8fb870	-0.017544001
129	0xbd4fb980	-0.050714016
130	0xbd167774	-0.036735013
131	0x3c5c1477	0.013432614
132	0xbd7585a9	-0.05994192
133	0x3b93d8de	0.0045119366
134	0x3d864911	0.06556905
135	0x3d9185aa	0.071055725
136	0x3da449f5	0.08021919
137	0xbc21c290	-0.0098730475
138	0xbcbd58e2	-0.023113672
139	0xbd714e48	-0.058912545
140	0x3cffbd07	0.031218065
141	0xbd14e07c	-0.036346897
142	0xbda0e5e8	-0.07856351
143	0xbd3fa8ff	-0.046792027
144	0x3d451ef8	0.048125237
145	0xbd79f89a	-0.0610281
146	0xbd2c0820	-0.041999936
147	0x3d52f0c6	0.05149915
148	0xbd855f4a	-0.065123156
149	0x3d7da862	0.06192816
150	0x3da5add5	0.080897965
151	0xbd2e407c	-0.042541966
152	0x3d574722	0.052558072
153	0x3d6eb36a	0.05827657
154	0x3b918ff1	0.004442208
155	0x3c844dac	0.016150318
156	0xbb8a45fd	-0.004219769
157	0x3d4c1a11	0.049829546
158	0x3d097923	0.03356279
159	0x3cc63943	0.024197226
160	0x3d8d117b	0.068881
161	0xbdafe67e	-0.08588885
162	0x3d8c9775	0.06864826
163	0xbda9bbec	-0.082877964
164	0xbd1d1856	-0.038353287
165	0xbca45940	-0.020062089
166	0x3d7375ae	0.0594384
167	0x3b43b2f0	0.0029861294
168	0x3dad79fa	0.08470531
169	0xbd9ed2de	-0.077550635
170	0xbd36d541	-0.04463697
171	0x3d163a8e	0.036676936
172	0x3c9ef4c6	0.019403826
173	0xbd2fbea7	-0.04290643
174	0xbdaf75ec	-0.08567414
175	0x3ab31443	0.0013662655
176	0x3d6261bc	0.055268988
177	0xbd1a4ad2	-0.03766901
178	0xbd469ca6	-0.048489235
179	0x3d3c1310	0.045916617
180	0xbd700ad8	-0.05860409
181	0xbd5b1311	-0.05348498
182	0xbcca1974	-0.02467034
183	0xbd98e04c	-0.07464656
184	0x3da9be18	0.08288211
185	0xbd09154a	-0.03346757
186	0x3c8ef400	0.017450333
187	0xbd43aa70	-0.047769964
188	0x3d768d0e	0.060193114
189	0xbda17cff	-0.07885169
190	0x3ccf153f	0.025278686
191	0x3c0b3128	0.0084956065
192	0xbdc516fc	-0.096235245
193	0xbdca9fcb	-0.09893759
194	0xbda60514	-0.08106437
195	0xbdcd309b	-0.100190364
196	0x3d714045	0.058899183
197	0xbd581ff1	-0.052764837
198	0xbdc148e0	-0.09437728
199	0xbdbd8a8b	-0.092549406
200	0xbd9972a0	-0.07492566
201	0x3d8db22b	0.069187485
202	0xbd26ae66	-0.040693663
203	0xbdbfca6c	-0.09364781
204	0x3d256ad6	0.04038509
205	0x3d0184bf	0.031620737
206	0xbd5077eb	-0.050895613
207	0x3cba7c70	0.022764415
208	0xbd4b1cb8	-0.049587935
209	0xbc83ba90	-0.01608017
210	0x3d82fe33	0.06396141
211	0x3d68d881	0.0568471
212	0x3d6286f7	0.055304494
213	0xbd61e63f	-0.05515122
214	0xbdae4286	-0.08508782
215	0xbcad9e94	-0.02119378
216	0x3d0a6caf	0.033795055
217	0x3d5d0299	0.053957555
218	0x3d7a9074	0.061172917
219	0xbd7197cf	-0.058982667
220	0xbd27b537	-0.040944304
221	0x3d72d07d	0.05928086
222	0x3ce5caf0	0.02805087
223	0x3d746f5b	0.05967651
224	0x3c768b1f	0.0150478175
225	0x3cb67d9f	0.022276698
226	0x3d8e42e4	0.06946352
227	0xbd9b000a	-0.07568367
228	0xbd8104cc	-0.06299743
229	0x3d07a759	0.03311858
230	0xbd9117fe	-0.07084654
231	0xbd95969f	-0.07304119
232	0xbdb41d52	-0.08794655
233	0x3da536b7	0.08067077
234	0xbc8725a1	-0.016497435
235	0xbd8667d0	-0.065627694
236	0xbd211846	-0.03932979
237	0xbd4a1a71	-0.049341623
238	0x3c402cb5	0.011729409
239	0x3d19b274	0.0375237
240	0xbd9264c5	-0.071481265
241	0xbd915056	-0.07095401
242	0xbd862fda	-0.06552096
243	0x3c88ee5a	0.016715217
244	0xbd918ecb	-0.07107314
245	0x3d805269	0.062657185
246	0xbd1a35b6	-0.03764888
247	0x3cbadc14	0.02281002
248	0xbd8a9733	-0.0676712
249	0x3d8b1249	0.06790597
250	0xbd8a4957	-0.0675227
251	0x3d058b00	0.032603264
252	0xbd7ed46c	-0.0622143
253	0xbdaba588	-0.08381182
254	0xbd9aacb1	-0.075524695
255	0xbca73a8a	-0.020413656

network.2.bias f4 [128]
0	0xbc835215	-0.01603035
1	0xbdad50e9	-0.08462698
2	0x3d3a96b3	0.045553874
3	0x3d8a9749	0.067671366
4	0xbd0f6440	-0.035007715
5	0xbd44eecf	-0.048079308
6	0x3d892651	0.066967614
7	0xbd87c50e	-0.06629382
8	0xbd7ed538	-0.06221506
9	0xbdafae51	-0.0857817
10	0xbac88b98	-0.0015300391
11	0xbd95258f	-0.07282554
12	0x3d547a38	0.05187437
13	0x3c2f0180	0.01068151
14	0xbd0dcfbe	-0.034621947
15	0x3c9f176c	0.019420348
16	0x3d950ad7	0.07277458
17	0xbc9e5bd4	-0.019330896
18	0x3d8811a8	0.06643993
19	0x3c815ad8	0.015790388
20	0xbcf4b968	-0.029873565
21	0xbc6986e2	-0.01425335
22	0x3d27c8f0	0.040963113
23	0xbd5fe7c3	-0.054664385
24	0x3dc1445b	0.09436866
25	0xbd5702ad	-0.052492786
26	0xbd874118	-0.066042125
27	0xbcffadf7	-0.031210883
28	0x3d9f0ae8	0.07765752
29	0x3dbfaced	0.09359155
30	0x3d8ecfaa	0.069732025
31	0x3c9ccbde	0.01914018
32	0xbda8aad8	-0.08235711
33	0x3c694e19	0.014239811
34	0xbc3aaf02	-0.011394264
35	0xbabcec9d	-0.0014413778
36	0x3c744598	0.014909171
37	0x3c555851	0.013021545
38	0xbcd2693d	-0.025684947
39	0x3db995d9	0.09061784
40	0x394530ae	0.00018805519
41	0xbcb7b61b	-0.022425702
42	0x3d209d0e	0.03921228
43	0x3d8956ee	0.06706034
44	0xbda04034	-0.07824746
45	0x3c498d00	0.012301683
46	0xbd2b08e5	-0.04175653
47	0x3dce246e	0.10065542
48	0x3d4473fe	0.04796218
49	0xbdc7a4b8	-0.097482145
50	0xbd7bce1f	-0.06147587
51	0xbbb2c28a	-0.00545532
52	0xbd7ceb9a	-0.061748125
53	0x3d2594cb	0.040425103
54	0xbd2267af	-0.03964966
55	0xbdd390d3	-0.103303574
56	0x3d532544	0.05154921
57	0xbd52dd6e	-0.051480703
58	0x3c39afc8	0.011333413
59	0x3bf56daa	0.0074898796
60	0xbc80ccc2	-0.015722636
61	0xbd50ccd6	-0.050976597
62	0x3dc0112d	0.09378276
63	0x3c193b95	0.009352584
64	0xbd061a83	-0.032740127
65	0x3d76fa29	0.060297165
66	0xbdb49a0f	-0.08818447
67	0xbc731577	-0.014836661
68	0xbd5db6ae	-0.054129295
69	0xbdb161b1	-0.08661211
70	0x3d10d5b2	0.035360046
71	0x3ddcf13a	0.10788198
72	0xbd673834	-0.056450084
73	0xbd422aa4	-0.047403947
74	0x3cead44e	0.028665688
75	0xbd2c5495	-0.04207285
76	0xbbef150d	-0.0072962106
77	0xbd63d4d8	-0.055622905
78	0x3c88827e	0.016663786
79	0x3ce524c6	0.027971637
80	0x3b8f95a3	0.0043818518
81	0xbb12a5b6	-0.0022376603
82	0xbdcc5b39	-0.09978337
83	0x3d348490	0.044071734
84	0x3d5c9e28	0.053861767
85	0x3d9d5745	0.07682661
86	0xbda0bdfe	-0.07848738
87	0x3c78f285	0.01519454
88	0x3cd4bc5c	0.025968723
89	0x3d446e1d	0.047956575
90	0x3c4ce455	0.0125056105
91	0x3c9d917d	0.019234413
92	0x3d819069	0.06326372
93	0x3dde6478	0.10859007
94	0x3d785f37	0.06063768
95	0xbc8baaeb	-0.017049273
96	0x3d8c6ca6	0.068566605
97	0x3d891160	0.06692767
98	0x3d08b2b8	0.033373564
99	0x3d283a47	0.041071203
100	0xbbb3b39f	-0.005484059
101	0x3d3dbf11	0.046324793
102	0xbb5df5da	-0.0033868463
103	0x3d089630	0.033346355
104	0xbc3b68f7	-0.0114386
105	0xbda26894	-0.07930103
106	0xbd9a5814	-0.07536331
107	0xbd4bbbb5	-0.04973956
108	0xbd17a48c	-0.03702216
109	0xbd8bcac4	-0.06825784
110	0xbd6cf10f	-0.05784708
111	0xbc54e012	-0.012992876
112	0xbda05f58	-0.078306854
113	0xbdcb6251	-0.09930862
114	0x3c5dea69	0.013544657
115	0x3de82f1a	0.11337109
116	0x3c94d0e8	0.01816602
117	0xbdb9655e	-0.090525374
118	0xbcd4a53d	-0.025957698
119	0x3ddb54b6	0.10709517
120	0xbacc0a4d	-0.0015567035
121	0x3c933581	0.017969849
122	0xbd18ea88	-0.03733304
123	0xbce895ff	-0.028391836
124	0xbdb4ae8a	-0.08822353
125	0xbd2528db	-0.040322166
126	0xbd4a9329	-0.04945675
127	0xbd05f314	-0.03270252

network.4.weight f4 [4, 128]
0	0xbc998981	-0.018742325
1	0x3d826ec1	0.06368781
2	0xbd343828	-0.043998867
3	0x380e82d9	3.39773e-05
4	0xbd9424fd	-0.072336175
5	0xbd83ed10	-0.064417005
6	0x3bc5392b	0.006018778
7	0x3c071d8e	0.0082467925
8	0x3d5a4a06	0.05329325
9	0xbd3838f5	-0.044976193
10	0xbac00dbf	-0.0014652534
11	0xbc8d3868	-0.01723881
12	0xbdf550c9	-0.11978299
13	0x3d8fd34d	0.07022724
14	0x3ce77ff4	0.028259255
15	0x3d325684	0.04353954
16	0x3d8ea7d4	0.069656044
17	0x3cb7ac02	0.022420887
18	0xbd10d42b	-0.03535859
19	0xbd90386d	-0.07042012
20	0xbe176030	-0.14782786
21	0xbd208e44	-0.039198175
22	0xbd25bffc	-0.040466294
23	0xbab9727e	-0.0014148501
24	0xbd5f6165	-0.054536242
25	0xbda9565c	-0.08268425
26	0xbd8a2e06	-0.067470595
27	0xbd2189db	-0.03943811
28	0xbdaf0961	-0.08546711
29	0x3c697998	0.014250182
30	0xbd6a7274	-0.057238057
31	0x3c5305db	0.012879814
32	0x3a8363b2	0.0010024218
33	0x3d56aded	0.052411962
34	0xbd8cc71b	-0.06873914
35	0x3d41e49a	0.047337152
36	0xbdbc1868	-0.091843426
37	0xbde7b449	-0.113136835
38	0xbb877413	-0.00413371
39	0xbd603482	-0.054737575
40	0x3d0743ef	0.03302377
41	0xbc684645	-0.01417691
42	0xbc09916d	-0.008396489
43	0x3c849330	0.016183466
44	0xbd2f8740	-0.042853594
45	0xbdfb6071	-0.12274254
46	0x3b88a50e	0.0041700667
47	0xbcfcfc92	-0.030882154
48	0x3c318bbc	0.010836538
49	0xbd84345c	-0.06455299
50	0xbd99e70a	-0.0751477
51	0x3a3d2dd4	0.0007216607
52	0x3d32dcc7	0.04366758
53	0x3cb85997	0.022503657
54	0xbd5073ce	-0.05089169
55	0x3d8ccd48	0.06875092
56	0xbdc0c304	-0.09412196
57	0xbca75fd6	-0.02043144
58	0x3d6aa6d8	0.05728802
59	0xbe25e3c6	-0.1620017
60	0x3d3546de	0.044257037
61	0xbc7052d8	-0.014668189
62	0xbd7b6d94	-0.0613838
63	0xbd921475	-0.07132808
64	0xbc2decf6	-0.010615578
65	0x3d1c83c6	0.038211606
66	0x3d4071ee	0.04698365
67	0x397b7ea9	0.0002398441
68	0xbc8e0b0b	-0.01733925
69	0x3d257be6	0.040401362
70	0xbd97deb1	-0.07415522
71	0xbdbfd5ac	-0.093669266
72	0xbdba105a	-0.0908515
73	0xbd8e1057	-0.0693671
74	0xbd31d821	-0.043419007
75	0x3d305cc4	0.04305722
76	0x3d5c5451	0.053791348
77	0xbe197815	-0.14987214
78	0xbd502be3	-0.050823104
79	0xbd5cfd83	-0.053952705
80	0x3bd145f2	0.006386512
81	0x3d201ad7	0.039088096
82	0xbd6d76f9	-0.05797479
83	0x3d8f2398	0.06989211
84	0xbd66127c	-0.05616997
85	0x3d2249cf	0.03962117
86	0xbd3f4d70	-0.04670471
87	0xbcf55248	-0.029946461
88	0xbd03127e	-0.032000057
89	0x3c910ad9	0.017705368
90	0x3d49e6ad	0.049292255
91	0x3daa2d7d	0.083094575
92	0x3cf9a5ed	0.030474627
93	0x3c3c5f8e	0.011497391
94	0x3da1d588	0.07902056
95	0x3d7e0563	0.062016856
96	0xbe07e174	-0.13269597
97	0xbc087d9c	-0.008330729
98	0xbddef4a1	-0.10886503
99	0xbd823888	-0.06358439
100	0xbad95402	-0.0016580822
101	0xbdc504e6	-0.09620075
102	0x3d02c6c5	0.031927843
103	0x3cb4449e	0.022005375
104	0x39d95f8f	0.00041460662
105	0x3d53cd0d	0.051709224
106	0x3d95d101	0.07315255
107	0xbc78833f	-0.01516801
108	0xbddc7fd0	-0.10766566
109	0xbd8da530	-0.06916273
110	0x3dd83abf	0.1055808
111	0x3d90b9e2	0.07066704
112	0xbd0e56d9	-0.034750793
113	0xbd791c82	-0.060818203
114	0xbd34c1e4	-0.04413022
115	0xbd0f2698	-0.034948915
116	0x3d9e5c25	0.07732419
117	0xbd19cbe3	-0.037547957
118	0xbcc810d5	-0.024422089
119	0xbcbf68d9	-0.023365425
120	0x3cdc4116	0.026886504
121	0x3ca0d2e2	0.019631807
122	0xbda871db	-0.08224841
123	0x3daafb6b	0.083487354
124	0x3d80b2dc	0.06284115
125	0x3cf56de3	0.029959625
126	0xbe12d8cd	-0.14340515
127	0x3b02f0b9	0.0019979908
128	0x3c9f539e	0.019449051
129	0x3d2aac0f	0.041667994
130	0xbe8d542b	-0.27603278
131	0x3d814142	0.06311275
132	0x3e769c57	0.24083076
133	0xbe81058f	-0.25199553
134	0xbabc938d	-0.0014387235
135	0x3d73e486	0.05954411
136	0xbc702a20	-0.014658481
137	0xbd24c90f	-0.040230807
138	0x3d9b892f	0.07594525
139	0x3d9ce417	0.07660692
140	0xbd82dc09	-0.063896246
141	0xbd7b7511	-0.06139094
142	0x3e92a35d	0.2864026
143	0xbc8fc3b7	-0.017549379
144	0xbc9f88bd	-0.019474382
145	0x3da99e86	0.08282189
146	0xbe325ee5	-0.17419012
147	0xbba11c30	-0.0049166903
148	0xbe1867c0	-0.14883327
149	0xbcbdffb0	-0.02319321
150	0x3e117662	0.14205316
151	0x3d6e95d5	0.05824836
152	0x3e681538	0.22664344
153	0xbc26a24e	-0.010170532
154	0xbb8a1649	-0.0042140824
155	0xbd030138	-0.031983584
156	0xbcaeb745	-0.021327624
157	0x3e2590f0	0.1616857
158	0x3d29ceea	0.041457094
159	0x3d8bbb0c	0.06822786
160	0xbcd21cd5	-0.025648514
161	0xbde9865b	-0.114025794
162	0x3e1d379b	0.15353243
163	0x3e48335d	0.19550844
164	0x3d28d628	0.04121986
165	0x3d182fe2	0.03715504
166	0xbcc7f10d	-0.024406934
167	0xbde89a96	-0.1135761
168	0xbddcfa21	-0.10789896
169	0x3e2c2b3a	0.16813365
170	0x3e649abf	0.22324656
171	0xbc44aa46	-0.012003487
172	0x3c0907b5	0.008363654
173	0x3d6a4f69	0.057204638
174	0xbe6e20db	-0.23254721
175	0x3e5924d8	0.21205461
176	0xbe228034	-0.15869218
177	0x3c5214e9	0.012822368
178	0x3dd7ce86	0.10537438
179	0x3ba7f5d3	0.00512574
180	0x3d386356	0.04501661
181	0xbdd08b2f	-0.10182797
182	0xbe41f362	-0.189405
183	0x3d845576	0.06461613
184	0x3da4c4f6	0.0804538
185	0x3dc86668	0.097851574
186	0x3e06b9b5	0.13156779
187	0x3e28fa5e	0.16501758
188	0xbddc2ecc	-0.10751113
189	0xbd1acb0f	-0.037791308
190	0x3e022610	0.12709832
191	0xbcf57346	-0.029962193
192	0x3ddfde8b	0.109311186
193	0xbe0e844c	-0.13917655
194	0xbd300633	-0.042974662
195	0xbd897e14	-0.067135006
196	0xbe09ceb1	-0.13457753
197	0x3d0a4cc9	0.033764634
198	0x3dd95a6a	0.10612948
199	0x3df352cc	0.118810266
200	0xbe63e745	-0.22256191
201	0x3c91c562	0.017794315
202	0xbd89a1d0	-0.067203164
203	0xbdc09f63	-0.094054006
204	0x3d298cb0	0.041393936
205	0x3d935954	0.07194772
206	0xbe9bcb8e	-0.30428737
207	0x3e2196f8	0.15780246
208	0xbdd4afda	-0.103851035
209	0xbdaf1a27	-0.0854991
210	0x3c10f9e2	0.008848639
211	0xbd0f9f0c	-0.03506379
212	0xbe3132a7	-0.17304479
213	0x3d39f369	0.04539815
214	0x3c96bb09	0.018399732
215	0xbd7e751f	-0.062123414
216	0xbd2e29c6	-0.042520307
217	0xbe7061f7	-0.2347487
218	0x3cb2d524	0.021830149
219	0xbd59dc92	-0.053188868
220	0x3c8886f0	0.016665906
221	0x3e72273d	0.2364778
222	0xbdb0f664	-0.08640745
223	0xbe39a9fd	-0.18131252
224	0x3ddfe331	0.10932005
225	0xbe7d9660	-0.24764395
226	0x3da3801b	0.079834186
227	0x3e5d4e0c	0.21611804
228	0xbc2cfdb3	-0.0105585335
229	0x3d731a49	0.05935124
230	0x3dc902de	0.09815
231	0xbda036f4	-0.078229815
232	0x3d1ed959	0.038781498
233	0xbbe14761	-0.006874964
234	0xbd95e292	-0.073186055
235	0xbad8199d	-0.0016487126
236	0xbe61b039	-0.2203988
237	0xbd8c3dfe	-0.068477616
238	0x3d0a402c	0.033752605
239	0x3da2216f	0.07916533
240	0x3c6423a8	0.013924517
241	0xbda59dab	-0.080867134
242	0xbc76c686	-0.01506198
243	0x3d0bf2b9	0.034167025
244	0x3d9edc86	0.07756905
245	0xbd418e20	-0.04725468
246	0x3df0f8bf	0.117661946
247	0x3e79ac7f	0.24382208
248	0x3e178dcc	0.14800185
249	0x3d896795	0.0670921
250	0xbe7fdebf	-0.24987315
251	0xbd132e74	-0.035932973
252	0x3d932b63	0.0718601
253	0xbe806225	-0.25074878
254	0x3d44fdeb	0.048093718
255	0xbd8b2b81	-0.06795407

network.4.bias f4 [4]
0	0x3c98089d	0.018558795
1	0xbd834188	-0.064089835
2	0xbba22d93	-0.0049492805
3	0xbdb854b4	-0.09000531
