reinforce/final_reinforce_model.pt (torch, 75668 bytes, 6 tensors)

network.0.weight f4 [128, 8]
-0.21103548 -0.20249811 -0.058867052 0.06092518 -0.024951912 -0.23736069 0.15450211 -0.37903365
-0.07516692 0.1226979 -0.07801329 0.6377899 0.5405809 -0.06571682 0.033917032 -0.053155243
0.088109545 0.2725077 -0.20015302 0.26323566 -0.22077888 -0.22516283 -0.2963771 -0.11964813
0.16660655 -0.040941533 0.27484217 0.6449361 -0.10454305 0.14355595 0.117212154 -0.08565599
-0.10737964 0.20495124 -0.30167884 -0.3685895 0.6998879 -0.19892819 -0.15590842 0.25492567
-0.22846392 0.06098143 -0.44090632 0.184101 0.63609886 0.46001637 0.34079525 0.20950375
-0.22865687 0.2483001 -0.2893197 -0.11098911 -0.029963216 -0.43444678 -0.2655297 0.01998773
0.26075608 -0.22675419 -0.28056628 -0.19388366 0.42094472 0.22915176 0.18092714 -0.10616535
0.215658 -0.018162977 -0.13118728 -0.21209195 0.31503776 0.43292093 -0.07903633 -0.25041
0.15548588 0.28895617 -0.13464136 0.2617845 0.19458227 0.22353485 0.034079872 0.43217424
0.049522314 0.24707377 0.23197941 -0.24848706 0.54604244 0.23067391 -0.15880659 -0.13481203
0.30501345 0.018557357 0.2986985 -0.42375278 0.043223668 0.04366215 -0.09495076 0.0150099285
0.4289648 0.12122221 0.10399801 0.288603 -0.65990084 0.29012832 0.20708402 0.20048328
0.0011363617 -0.090784185 0.023169937 0.14460096 0.035991054 0.3062322 0.12091044 -0.027773406
0.2099296 -0.32498914 0.29104745 -0.25828198 -0.16854183 0.16049714 -0.33285868 -0.20450348
-0.10024482 -0.32038698 0.065048136 0.3210659 -0.14711319 0.2487832 0.06526954 0.2950393
0.12570871 0.026788604 0.31646398 0.31002873 -0.48232 0.1472112 -0.13591054 -0.0113686295
0.14732155 -0.18956333 0.32335204 -0.42009446 -0.016447593 -0.14798316 0.13263224 -0.10158877
-0.00248246 -0.099471815 -0.27132335 0.16397625 -0.14198133 -0.056206822 0.16477352 -0.29137436
0.13591218 -0.05557931 0.16613312 -0.4579544 -0.6307332 -0.37425932 -0.0050192215 -0.18371609
0.07531345 -0.12128143 -0.2306049 -0.35822114 0.5359793 -0.47179636 -0.12744841 0.22064187
-0.0969784 0.016885752 -0.35083276 0.17838305 0.16298448 -0.16391104 0.082741655 0.3617651
-0.0629005 -0.106556445 0.19478355 0.11821345 -0.20097597 0.058350552 -0.21662456 -0.045154452
0.3380589 -0.20756018 0.0835113 -0.3654113 -0.23618092 -0.39110112 -0.0864085 -0.26027164
0.012740788 0.25306955 0.48293737 0.32646808 -0.69519275 -0.1439346 0.23269996 0.26077664
-0.32733095 -0.33705625 0.1810443 0.3153206 0.06429004 0.032751117 0.37489668 0.07074815
-0.026641326 0.2713136 0.211842 0.35232309 0.31213835 0.29411852 -0.017495185 -0.16033413
0.2393411 -0.19168478 0.1976884 -0.25952485 -0.47736472 -0.47092074 -0.18201327 0.049284544
-0.24520774 0.29729283 -0.46089995 0.38801208 0.5245987 0.36644602 -0.015900493 -0.17508031
0.3717886 -0.21432811 -0.023693914 -0.3397578 -0.20173624 -0.11820914 -0.089087 0.039897863
-0.21005875 -0.20180634 -0.17095219 0.13929938 -0.048747383 -0.31291083 0.09483786 -0.17506509
-0.1575353 -0.037436116 0.34569567 -0.1771924 0.503341 0.31665888 0.035490822 0.076239176
00000000: af19 58be aa5b 4fbe 941e 71bd ae8c 793d
00000010: f467 ccbc ae0e 73be cd35 1e3e b310 c2be
00000020: 1df1 99bd 0949 fb3d 6fc5 9fbd 3346 233f
00000030: 8363 0a3f 8a96 86bd 96ec 0a3d 50b9 59bd
00000040: c772 b43d 2186 8b3e eaf4 4cbe d3c6 863e
00000050: dc13 62be 1691 66be bdbe 97be 140a f5bd
00000060: e89a 2a3e 4fb2 27bd 1db8 8c3e 881a 253f
00000070: ab1a d6bd 5500 133e ed0c f03d 686c afbd
00000080: dbe9 dbbd bdde 513e a675 9abe c3b7 bcbe
00000090: da2b 333f d5b3 4bbe 75a6 1fbe 9e85 823e
000000a0: 72f2 69be aac7 793d 79be e1be f984 3c3e
000000b0: 60d7 223f 4487 eb3e b77c ae3e 2788 563e
000000c0: 0725 6abe 6242 7e3e b621 94be 424e e3bd
000000d0: 6b75 f5bc cf6f debe 82f3 87be 4fbd a33c
000000e0: d281 853e 4032 68be 62a6 8fbe 7089 46be
000000f0: 1186 d73e c2a6 6a3e f744 393e 386d d9bd
00000100: 73d5 5c3e 86ca 94bc f555 06be a22e 59be
00000110: a14c a13e d0a7 dd3e cddd a1bd bd35 80be
00000120: b137 1f3e 10f2 933e 6ddf 09be 9e08 863e
00000130: 9340 473e 52e6 643e 5697 0b3d f145 dd3e
00000140: e9d7 4a3d e800 7d3e 038c 6d3e 6473 7ebe
00000150: 70c9 0b3f c835 6c3e 329e 22be 2a0c 0abe
00000160: b92a 9c3e 9905 983c 03ef 983e 20f6 d8be
00000170: 4d0b 313d 15d7 323d 8b75 c2bd 34ec 753c
00000180: 46a1 db3e 5a43 f83d e9fc d43d c6c3 933e
00000190: 43ef 28bf b38b 943e d50d 543e 7d4b 4d3e
000001a0: f9f1 943a 0fed b9bd e1ce bd3c 4612 143e
000001b0: 5b6b 133d 78ca 9c3e e59f f73d 0e85 e3bc
000001c0: c9f7 563e fa64 a6be 2c04 953e 893d 84be
000001d0: 3b96 2cbe 5d59 243e 746c aabe 5c69 51be
000001e0: 284d cdbd c309 a4be f537 853d c062 a43e
000001f0: d7a4 16be 06c1 7e3e 09ac 853d 640f 973e
00000200: c9b9 003e c673 db3c 9107 a23e 16bc 9e3e
00000210: a6f2 f6be 88be 163e 222c 0bbe 7d43 3abc
00000220: 76db 163e e41c 42be 668e a53e 9f16 d7be
00000230: 1abd 86bc e688 17be bfd0 073e c60d d0bd
00000240: c5b0 22bb e1b7 cbbd e5ea 8abe 64e9 273e
00000250: 8e63 11be 2039 66bd 64ba 283e 052f 95be
00000260: 902c 0b3e 21a7 63bd cd1e 2a3e 0079 eabe
00000270: bb77 21bf eb9e bfbe 4878 a4bb 1220 3cbe
00000280: f03d 9a3d 6662 f8bd b123 6cbe c368 b7be
00000290: f035 093f 4b8f f1be d681 02be f1ef 613e
000002a0: 9d9c c6bd fd53 8a3c 5aa0 b3be 0caa 363e
000002b0: 67e5 263e 4cd8 27be 7574 a93d 4639 b93e
000002c0: fad1 80bd 443a dabd 5775 473e e519 f23d
000002d0: a5cc 4dbe fd00 6f3d d4d2 5dbe e0f3 38bd
000002e0: 0e16 ad3e a88a 54be f907 ab3d 3117 bbbe
000002f0: 69d9 71be 683e c8be f1f6 b0bd 5342 85be
00000300: bdbe 503c 5592 813e 9143 f73e d326 a73e
00000310: 27f8 31bf 9763 13be e648 6e3e 8484 853e
00000320: ec97 a7be a392 acbe ad63 393e b471 a13e
00000330: 7faa 833d 0926 063d 75f2 bf3e 68e4 903d
00000340: e93e dabc 9ee9 8a3e 1ced 583e b163 b43e
00000350: 99d0 9f3e b496 963e 1052 8fbc a12e 24be
00000360: d515 753e 0449 44be d46e 4a3e 71e0 84be
00000370: 2669 f4be 861c f1be b061 3abe 97de 493d
00000380: bd17 7bbe c436 983e 14fb ebbe 85a9 c63e
00000390: 1a4c 063f d09e bb3e c041 82bc 4148 33be
000003a0: 135b be3e d478 5bbe bd19 c2bc bcf4 adbe
000003b0: f293 4ebe a217 f2bd 3f73 b6bd f16b 233d
000003c0: a419 57be 52a6 4ebe 170e 2fbe 7fa4 0e3e
000003d0: 56ab 47bd d935 a0be 5a3a c23d 4344 33be
000003e0: ef50 21be 9d56 19bd 06ff b03e ed71 35be
000003f0: f5da 003f 1d21 a23e d35e 113d 4923 9c3d

network.0.bias f4 [128]
-0.19066207 0.19889681 -7.056211e-05 0.36223707 0.06228477 0.10843229 -0.3790371 0.29785398
0.2704992 -0.19478987 -0.29327768 -0.023536613 0.29258057 -0.25943968 -0.39407316 -0.07369545
0.22895977 0.06754721 -0.29467946 0.31863463 0.06758624 -0.22809272 -0.30499086 0.24851744
0.08877272 -0.024815964 -0.1979694 0.3786662 0.3037538 0.2946027 -0.14879167 0.015889503
0.15155283 -0.025299827 -0.057063073 0.22374974 -0.3205438 -0.044559035 0.17028831 -0.31251773
-0.08717737 0.34984398 -0.14146405 0.16330262 -0.036517315 0.29317796 0.117754124 0.12142464
0.25200942 0.047593504 -0.109463155 0.049166393 0.012943177 -0.02340707 0.17351298 0.1965026
-0.2674894 -0.039181698 -0.046935186 0.051524162 0.39047435 0.2992511 0.029043136 -0.112093575
-0.03796461 -0.1415586 0.109736145 -0.36214638 0.22257203 -0.08575112 -0.22671516 0.12545504
-0.2884538 -0.36493137 0.19867311 0.07471628 -0.10341034 -0.17729142 -0.1895106 0.21074857
-0.28387737 0.25827533 -0.30002937 0.099917606 0.18089348 0.3676487 -0.053620797 0.34386924
-0.041225143 0.18196833 -0.05373789 0.06037145 -0.15954791 0.3467944 -0.21687911 0.04204759
-0.071095325 0.036395855 -0.31379074 -0.3175759 0.16313013 0.08197636 0.24225403 0.30739126
-0.054477148 -0.32115915 -0.32139874 0.028762516 -0.21470128 -0.15383402 0.15672712 0.07461604
0.13445824 -0.25917032 0.070386685 -0.37346366 0.1619258 0.0057940357 0.024899509 0.30723137
0.2818442 0.27194574 0.06850461 -0.10397458 0.34399858 -0.014923828 0.17441733 0.11459697
00000000: eb3c 43be 9bab 4b3e bffa 93b8 2377 b93e
00000010: 511e 7f3d c011 de3d 2711 c2be 5180 983e
00000020: df7e 8a3e ff76 47be 7e28 96be dbcf c0bc
00000030: 1fcd 953e 47d5 84be f5c3 c9be a4ed 96bd
00000040: 6e74 6a3e 3156 8a3d 3ae0 96be 1424 a33e
00000050: a86a 8a3d 2391 69be c327 9cbe 5b7b 7e3e
00000060: 79ce b53d d94a cbbc 7eb8 4abe 89e0 c13e
00000070: 9e85 9b3e 2ad6 963e d85c 18be b42a 823c
00000080: aa30 1b3e 9541 cfbc f8ba 69bd a71e 653e
00000090: 511e a4be 8983 36bd 0f60 2e3e 5302 a0be
000000a0: 0d8a b2bd c01e b33e f4db 10be cd38 273e
000000b0: 2e93 15bd 6c1b 963e 1329 f13d 7bad f83d
000000c0: 6107 813e 68f1 423d 382e e0bd b362 493d
000000d0: 9e0f 543c 2fc0 bfbc 63ad 313e fa37 493e
000000e0: 5ff4 88be fd7c 20bd 1c3f 40bd 000b 533d
000000f0: 41ec c73e 7137 993e dfeb ed3c 5191 e5bd
00000100: c780 1bbd bdf4 10be 58bd e03d 406b b9be
00000110: ece9 633e 489e afbd 0528 68be 4977 003e
00000120: 37b0 93be 49d8 babe f770 4b3e d904 993d
00000130: cdc8 d3bd e28b 35be 110f 42be 79ce 573e
00000140: 6058 91be aa3c 843e 739d 99be 9aa1 cc3d
00000150: 243c 393e 733c bc3e 7ba1 5bbd a10f b03e
00000160: b2db 28bd e855 3a3e 431c 5cbd 0e48 773d
00000170: 8760 23be 098f b13e 8f15 5ebe 183a 2c3d
00000180: 6d9a 91bd d213 153d 2ea9 a0be 4f99 a2be
00000190: 960b 273e 39e3 a73d 7111 783e 6362 9d3e
000001a0: 6e23 5fbd f96e a4be 608e a4be 5e9f eb3c
000001b0: a7da 5bbe aa86 1dbe 137d 203e 4bd0 983d
000001c0: 6caf 093e f9b1 84be e526 903d a136 bfbe
000001d0: e0cf 253e e5db bd3b 0efa cb3c 6e4d 9d3e
000001e0: e24d 903e 793c 8b3e 254c 8c3d a0f0 d4bd
000001f0: 9520 b03e 1283 74bc 759a 323e d1b1 ea3d

network.2.weight f4 [128, 128]
-0.03652311 0.019648379 -0.014868613 -0.008832017 -0.116925895 -0.00849702 -0.01610426 -0.026519451
-0.06338812 0.013629753 0.074445456 -0.030017026 0.0477724 0.040986273 0.08321837 -0.061803877
-0.030339727 -0.001496555 0.073889546 -0.08138267 0.031580422 -0.09659944 0.050549902 -0.06911369
0.065537415 -0.047914114 -0.027827121 -0.04776186 0.07464598 -0.10743281 0.0054421853 0.08154179
-0.094881125 0.04654099 0.016970713 -0.039438445 0.002820079 -0.13748544 0.058426823 -0.025602683
0.02748504 -0.09752875 -0.07563918 0.054197077 -0.036193594 0.023014665 -0.033348266 0.029041085
0.07421118 0.018056048 -0.07169058 -0.024041666 -0.0022868193 0.015910536 0.024782589 0.05714325
0.004147473 0.0029510139 -0.040397875 -0.05411336 0.033981036 0.012413291 -0.014101618 0.029209808
0.023685269 -0.0630043 0.0069722016 0.0013590597 -0.072883606 -0.0753528 -0.03450847 -0.009441554
0.047755606 0.016959086 0.034911998 -0.046730656 0.014750892 -0.067221195 -0.030239614 -0.05522518
-0.04641274 -0.015425699 -0.08603322 0.03544137 -0.06536547 -0.04479321 0.046111505 -0.108089976
-0.056294154 -0.031368103 -0.027985813 -0.06831724 -0.008821602 0.041159384 -0.032807026 -0.06910027
-0.010250307 0.006394206 -0.027114416 -0.058058202 0.027166944 0.01205663 -0.011187344 -0.089127995
-0.069609605 0.088166915 0.044176955 0.036718067 -0.023379728 0.041001994 -0.08342059 -0.04593275
-0.030561896 0.076972865 0.049092054 -0.08523962 -0.04208534 -0.058383115 -0.098081164 0.031488787
0.06326429 -0.010546241 -0.081910275 -0.05547192 -0.020220764 -0.12979275 -0.00027483673 -0.08396114
-0.017544001 -0.050714016 -0.036735013 0.013432614 -0.05994192 0.0045119366 0.06556905 0.071055725
0.08021919 -0.0098730475 -0.023113672 -0.058912545 0.031218065 -0.036346897 -0.07856351 -0.046792027
0.048125237 -0.0610281 -0.041999936 0.05149915 -0.065123156 0.06192816 0.080897965 -0.042541966
0.052558072 0.05827657 0.004442208 0.016150318 -0.004219769 0.049829546 0.03356279 0.024197226
0.068881 -0.08588885 0.06864826 -0.082877964 -0.038353287 -0.020062089 0.0594384 0.0029861294
0.08470531 -0.077550635 -0.04463697 0.036676936 0.019403826 -0.04290643 -0.08567414 0.0013662655
0.055268988 -0.03766901 -0.048489235 0.045916617 -0.05860409 -0.05348498 -0.02467034 -0.07464656
0.08288211 -0.03346757 0.017450333 -0.047769964 0.060193114 -0.07885169 0.025278686 0.0084956065
-0.096235245 -0.09893759 -0.08106437 -0.100190364 0.058899183 -0.052764837 -0.09437728 -0.092549406
-0.07492566 0.069187485 -0.040693663 -0.09364781 0.04038509 0.031620737 -0.050895613 0.022764415
-0.049587935 -0.01608017 0.06396141 0.0568471 0.055304494 -0.05515122 -0.08508782 -0.02119378
0.033795055 0.053957555 0.061172917 -0.058982667 -0.040944304 0.05928086 0.02805087 0.05967651
0.0150478175 0.022276698 0.06946352 -0.07568367 -0.06299743 0.03311858 -0.07084654 -0.07304119
-0.08794655 0.08067077 -0.016497435 -0.065627694 -0.03932979 -0.049341623 0.011729409 0.0375237
-0.071481265 -0.07095401 -0.06552096 0.016715217 -0.07107314 0.062657185 -0.03764888 0.02281002
-0.0676712 0.06790597 -0.0675227 0.032603264 -0.0622143 -0.08381182 -0.075524695 -0.020413656
00000000: 4299 15bd a3f5 a03c 7c9b 73bc 2ab4 10bc
00000010: d876 efbd 1637 0bbc 15ed 83bc 523f d9bc
00000020: a1d1 81bd 544f 5f3c dc76 983d 44e6 f5bc
00000030: feac 433d 39e1 273d 656e aa3d 1026 7dbd
00000040: 058b f8bc 0e28 c4ba 6753 973d f5ab a6bd
00000050: 795a 013d edd5 c5bd 6a0d 4f3d 7a8b 8dbd
00000060: 7b38 863d 9741 44bd b4f5 e3bc f1a1 43bd
00000070: fedf 983d bc05 dcbd 5c54 b23b 62ff a63d
00000080: 0951 c2bd c4a1 3e3d 2a06 8b3c 358a 21bd
00000090: 13d1 383b fcc8 0cbe f750 6f3d b8bc d1bc
000000a0: 4e28 e13c 27bd c7bd b7e8 9abd c1fd 5d3d
000000b0: bc3f 14bd 4089 bc3c 3198 08bd 92e7 ed3c
000000c0: 08fc 973d 47ea 933c 83d2 92bd 07f3 c4bc
000000d0: 76de 15bb d056 823c db04 cb3c 0a0f 6a3d
000000e0: 86e7 873b cc65 413b 3e78 25bd f8a5 5dbd
000000f0: b32f 0b3d 1e61 4b3c 790a 67bc 6849 ef3c
00000100: 9c07 c23c 6608 81bd 1177 e43b 7a22 b23a
00000110: 0044 95bd 9252 9abd c158 0dbd bfb0 1abc
00000120: 629b 433d c8ed 8a3c e2ff 0e3d a568 3fbd
00000130: baad 713c 44ab 89bd 11b9 f7bc cc33 62bd
00000140: 491b 3ebd 12bc 7cbc 2f32 b0bd f82a 113d
00000150: 55de 85bd 1679 37bd 6bdf 3c3d 475e ddbd
00000160: b394 66bd d77b 00bd 8142 e5bc e9e9 8bbd
00000170: 7b88 10bc be96 283d a960 06bd 7184 8dbd
00000180: e7f0 27bc 7d86 d13b 0d1f debc 70ce 6dbd
00000190: 368d de3c 2c89 453c 1f4b 37bc bd88 b6bd
000001a0: 7b8f 8ebd db90 b43d e5f2 343d af65 163d
000001b0: d886 bfbc b5f1 273d 6ad8 aabd fb23 3cbd
000001c0: f15c fabc f3a3 9d3d c014 493d 1c92 aebd
000001d0: ad61 2cbd 2223 6fbd c7de c8bd 63fa 003d
000001e0: b590 813d 24ca 2cbc 93c0 a7bd 8636 63bd
000001f0: 04a6 a5bc 64e8 04be f617 90b9 d1f3 abbd
00000200: 70b8 8fbc 80b9 4fbd 7477 16bd 7714 5c3c
00000210: a985 75bd ded8 933b 1149 863d aa85 913d
00000220: f549 a43d 90c2 21bc e258 bdbc 484e 71bd
00000230: 07bd ff3c 7ce0 14bd e8e5 a0bd ffa8 3fbd
00000240: f81e 453d 9af8 79bd 2008 2cbd c6f0 523d
00000250: 4a5f 85bd 62a8 7d3d d5ad a53d 7c40 2ebd
00000260: 2247 573d 6ab3 6e3d f18f 913b ac4d 843c
00000270: fd45 8abb 111a 4c3d 2379 093d 4339 c63c
00000280: 7b11 8d3d 7ee6 afbd 7597 8c3d ecbb a9bd
00000290: 5618 1dbd 4059 a4bc ae75 733d f0b2 433b
000002a0: fa79 ad3d ded2 9ebd 41d5 36bd 8e3a 163d
000002b0: c6f4 9e3c a7be 2fbd ec75 afbd 4314 b33a
000002c0: bc61 623d d24a 1abd a69c 46bd 1013 3c3d
000002d0: d80a 70bd 1113 5bbd 7419 cabc 4ce0 98bd
000002e0: 18be a93d 4a15 09bd 00f4 8e3c 70aa 43bd
000002f0: 0e8d 763d ff7c a1bd 3f15 cf3c 2831 0b3c
00000300: fc16 c5bd cb9f cabd 1405 a6bd 9b30 cdbd
00000310: 4540 713d f11f 58bd e048 c1bd 8b8a bdbd
00000320: a072 99bd 2bb2 8d3d 66ae 26bd 6cca bfbd
00000330: d66a 253d bf84 013d eb77 50bd 707c ba3c
00000340: b81c 4bbd 90ba 83bc 33fe 823d 81d8 683d
00000350: f786 623d 3fe6 61bd 8642 aebd 949e adbc
00000360: af6c 0a3d 9902 5d3d 7490 7a3d cf97 71bd
00000370: 37b5 27bd 7dd0 723d f0ca e53c 5b6f 743d
00000380: 1f8b 763c 9f7d b63c e442 8e3d 0a00 9bbd
00000390: cc04 81bd 59a7 073d fe17 91bd 9f96 95bd
000003a0: 521d b4bd b736 a53d a125 87bc d067 86bd
000003b0: 4618 21bd 711a 4abd b52c 403c 74b2 193d
000003c0: c564 92bd 5650 91bd da2f 86bd 5aee 883c
000003d0: cb8e 91bd 6952 803d b635 1abd 14dc ba3c
000003e0: 3397 8abd 4912 8b3d 5749 8abd 008b 053d
000003f0: 6cd4 7ebd 88a5 abbd b1ac 9abd 8a3a a7bc

network.2.bias f4 [128]
-0.016040448 -0.08462698 0.03426549 0.067671366 -0.021505719 -0.060152456 0.066967614 -0.06629382
-0.06221506 -0.0857817 -0.024787297 -0.0728132 0.044377 -0.020168187 -0.028843556 0.019420128
0.07647266 -0.019330896 0.06755048 -0.008824256 -0.01851928 -0.01425335 0.0405727 -0.054664385
0.0994084 -0.025560986 -0.066042125 -0.0311438 0.05437222 0.11038061 0.05048823 0.01914018
-0.10018744 0.0020503171 0.009287476 0.005188943 -0.0013558076 0.039759517 -0.025684947 0.107135735
-0.00014348315 -0.004272404 0.055439472 0.084007144 -0.09687746 0.047548495 -0.041204378 0.11882936
0.048401035 -0.097482145 -0.048270278 -0.00545532 -0.061740145 0.047839828 -0.049453434 -0.103303574
0.04959459 -0.051118772 0.015974058 0.0021745046 -0.041502126 -0.04903354 0.12316887 0.009352584
-0.032740127 0.04501947 -0.09520193 -0.0081956405 -0.047785174 -0.08661211 0.021073153 0.13398477
-0.05757265 -0.04810193 0.028665688 -0.044808242 -0.022782052 -0.055858407 0.00569948 0.016812203
0.0043818518 -0.0378708 -0.09981564 0.03326295 0.038187634 0.07682661 -0.07848738 0.0151772825
0.046148583 0.039574426 0.011620614 0.020280076 0.07865658 0.122034065 0.028531125 -0.042050853
0.06542274 0.05628663 0.043356586 0.048577063 -0.0055205408 0.06640582 -0.016444234 0.061733477
-0.0114386 -0.0796832 -0.07536331 -0.04973956 -0.035320412 -0.06829165 -0.05922088 -0.012992876
-0.078306854 -0.09963394 0.013525069 0.13912486 0.01816602 -0.090525374 -0.032143455 0.10958409
0.014454141 0.04158097 -0.04610244 -0.031531394 -0.08822353 -0.062266946 -0.057967037 -0.03270252
00000000: 4267 83bc e950 adbd f859 0c3d 4997 8a3d
00000010: c32c b0bc 6c62 76bd 5126 893d 0ec5 87bd
00000020: 38d5 7ebd 51ae afbd bb0e cbbc 161f 95bd
00000030: a8c4 353d c137 a5bc 5249 ecbc f616 9f3c
00000040: b39d 9c3d d45b 9ebc e857 8a3d 9d93 10bc
00000050: bfb5 97bc e286 69bc 8f2f 263d c3e7 5fbd
00000060: a296 cb3d 4665 d1bc 1841 87bd 4821 ffbc
00000070: 68b5 5e3d 3b0f e23d bfcc 4e3d decb 9c3c
00000080: 132f cdbd 9d5e 063b 7f2a 183c 0208 aa3b
00000090: 5bb5 b1ba e0da 223d 3d69 d2bc fb69 db3d
000000a0: f773 16b9 86ff 8bbb 8014 633d f00b ac3d
000000b0: b167 c6bd 36c2 423d ecc5 28bd cf5c f33d
000000c0: 2a40 463d b8a4 c7bd 0eb7 45bd 8ac2 b2bb
000000d0: 3ce3 7cbd b2f3 433d af8f 4abd d390 d3bd
000000e0: b223 4b3d eb61 51bd 07dc 823c 2282 0e3b
000000f0: 22fe 29bd 65d7 48bd f63f fc3d 953b 193c
00000100: 831a 06bd 5666 383d 3bf9 c2bd 0247 06bc
00000110: 63ba 43bd b161 b1bd 9ba1 ac3c 4e33 093e
00000120: 4dd1 6bbd 8806 45bd 4ed4 ea3c d988 37bd
00000130: 6da1 babc c9cb 64bd b4c2 ba3b bfb9 893c
00000140: a395 8f3b 691e 1bbd 246c ccbd bb3e 083d
00000150: a36a 1c3d 4557 9d3d febd a0bd 23aa 783c
00000160: 4c06 3d3d cb18 223d 6364 3e3c 6722 a63c
00000170: b316 a13d ffec f93d 1bba e93c 843d 2cbd
00000180: 5cfc 853d cf8c 663d ad96 313d bef8 463d
00000190: a7e5 b4bb c6ff 873d 0fb6 86bc 3edc 7c3d
000001a0: f768 3bbc f230 a3bd 1458 9abd b5bb 4bbd
000001b0: 23ac 10bd 7edc 8bbd 9891 72bd 12e0 54bc
000001c0: 585f a0bd e10c ccbd 4098 5d3c bf76 0e3e
000001d0: e8d0 943c 5e65 b9bd dba8 03bd a06d e03d
000001e0: 10d1 6c3c cf50 2a3d ead5 3cbd 1027 01bd
000001f0: 8aae b4bd a00b 7fbd d86e 6dbd 14f3 05bd

network.4.weight f4 [4, 128]
-0.018742194 0.06368781 -0.06514434 3.39773e-05 -0.104895644 -0.088476226 0.006018778 0.0082467925
0.05329325 -0.044976193 0.0029899722 -0.017238878 -0.14457099 0.039895922 -0.0019489222 0.043539558
0.05606658 0.022420887 -0.060658395 -0.10599413 -0.1737035 -0.039198175 -0.0713459 -0.0014148501
-0.08952463 -0.109648645 -0.067470595 -0.03943811 -0.13020912 -0.0059427926 -0.09915601 0.012879814
-0.029072724 0.044516776 -0.098938026 0.0142854955 -0.12709045 -0.14386517 -0.00413371 -0.079634085
0.0136588905 -0.041256547 -0.037732862 -0.0070050876 -0.081060566 -0.15487452 -0.019156728 -0.05865792
-0.002731784 -0.06455299 -0.078687884 0.0007216607 0.04366765 0.006381867 -0.07942066 0.06875092
-0.118798085 -0.02043151 0.031550124 -0.16552387 0.018774638 -0.014282963 -0.09339581 -0.07132808
-0.010615578 0.008602964 0.04422815 -0.00041456282 -0.029678205 0.040401362 -0.07727965 -0.12345875
-0.11601154 -0.06936727 -0.043419007 0.038366504 0.023095902 -0.18751986 -0.06939262 -0.05666262
0.006386512 0.007868432 -0.057975624 0.067519724 -0.08206493 0.03962117 -0.04670471 -0.029946446
-0.05854851 -0.003109233 0.04929234 0.08264145 0.0074017225 -0.018646622 0.051957056 0.028534336
-0.17583695 -0.028410686 -0.108596765 -0.099810824 -0.0016580654 -0.12638265 0.04275865 -0.0011825953
0.00041460662 0.05171104 0.07315255 -0.01516801 -0.12953241 -0.06916085 0.105460584 0.07066704
-0.034750793 -0.06081826 -0.0441303 -0.06277479 0.07732419 -0.037547957 -0.064161025 -0.05647836
0.0019745624 -0.0036400983 -0.10249652 0.08125074 0.06284115 0.017123334 -0.1484082 0.0019979908
0.019449143 0.041667994 -0.28590927 0.06311275 0.2556919 -0.26489305 -0.0014387235 0.05954411
-0.014658481 -0.040230807 0.06433356 0.076607525 -0.07508958 -0.08481384 0.29849905 -0.017549459
-0.010530944 0.08282189 -0.16461065 -0.008408445 -0.13717641 -0.02319321 0.15065575 0.05824836
0.22998932 -0.006795439 -0.0042140824 -0.03198559 -0.032396015 0.17364848 0.035648752 0.06822786
-0.039140552 -0.12660696 0.16782475 0.20790485 0.03948906 0.053146586 -0.024406934 -0.097382545
-0.10538289 0.1827747 0.23490253 -0.0011443233 -0.011359289 0.06526237 -0.22687082 0.22601187
-0.15657547 0.012822368 0.09143871 0.00512574 0.045019474 -0.09772954 -0.20831913 0.06461613
0.071100116 0.097851574 0.14940743 0.14979866 -0.1072101 -0.03755639 0.14137547 -0.029962193
0.109311186 -0.13770586 -0.04989485 -0.067080185 -0.13090058 0.033764634 0.09156167 0.13371989
-0.21581179 0.017794315 -0.067203164 -0.09274936 0.03870055 0.0449439 -0.31757894 0.14293444
-0.103851035 -0.09133897 0.008848108 -0.039053507 -0.19007462 0.04539815 0.018399732 -0.062121026
-0.02638734 -0.24495271 0.02179862 -0.05522611 0.026029382 0.24540672 -0.08887282 -0.18393455
0.09961698 -0.25165403 0.06470454 0.22453251 -0.010558572 0.07461244 0.093140356 -0.09356492
0.038781498 -0.007105537 -0.073186055 -0.0016487126 -0.21618287 -0.06847648 0.033397004 0.07916533
0.013924517 -0.080850266 -0.015061989 0.05004414 0.07756905 -0.04725468 0.12151701 0.25347248
0.16406336 0.07439465 -0.2513174 -0.041814618 0.0718601 -0.2629614 0.028001724 -0.06795407
00000000: 3b89 99bc c16e 823d 656a 85bd d982 0e38
00000010: 87d3 d6bd 0633 b5bd 2b39 c53b 8e1d 073c
00000020: 064a 5a3d f538 38bd 69f3 433b 8c38 8dbc
00000030: 6b0a 14be e869 233d fa72 ffba 8956 323d
00000040: 12a6 653d 02ac b73c f074 78bd 7313 d9bd
00000050: 55df 31be 448e 20bd cd1d 92bd 7e72 b9ba
00000060: b058 b7bd 788f e0bd 062e 8abd db89 21bd
00000070: 8a55 05be c2bb c2bb 4e12 cbbd db05 533c
00000080: ec29 eebc 3957 363d 05a0 cabd b60d 6a3c
00000090: 0024 02be 6451 13be 1374 87bb 3217 a3bd
000000a0: 8ac9 5f3c a0fc 28bd c68d 1abd ef8a e5bb
000000b0: 1503 a6bd 6d97 1ebe 92ee 9cbc 4a43 70bd
000000c0: bb07 33bb 5c34 84bd 1d27 a1bd d42d 3d3a
000000d0: dadc 323d fb1e d13b 4da7 a2bd 48cd 8c3d
000000e0: 694c f3bd fb5f a7bc b43a 013d 177f 29be
000000f0: 45cd 993c 1703 6abc 4d46 bfbd 7514 92bd
00000100: f6ec 2dbc 72f3 0c3c 9428 353d ae59 d9b9
00000110: b51f f3bc e67b 253d cb44 9ebd f1d7 fcbd
00000120: 7597 edbd 6d10 8ebd 21d8 31bd 3226 1d3d
00000130: 9e33 bd3c 3505 40be b81d 8ebd 1017 68bd
00000140: f245 d13b 99ea 003c d977 6dbd c847 8a3d
00000150: a811 a8bd cf49 223d 704d 3fbd 4052 f5bc
00000160: 90d0 6fbd 46c4 4bbb c4e6 493d ec3f a93d
00000170: 268a f23b cdc0 98bc ecd0 543d d7c0 e93c
00000180: 9a0e 34be 87bd e8bc fb67 debd 9e69 ccbd
00000190: 7153 d9ba 746a 01be b223 2f3d 5001 9bba
000001a0: 8f5f d939 f5ce 533d 01d1 953d 3f83 78bc
000001b0: 25a4 04be 34a4 8dbd b8fb d73d e2b9 903d
000001c0: d956 0ebd 911c 79bd f9c1 34bd 1290 80bd
000001d0: 255c 9e3d e3cb 19bd db66 83bd da55 67bd
000001e0: a967 013b b78e 6ebb b2e9 d1bd ca66 a63d
000001f0: dcb2 803d 3c46 8c3c 52f8 17be b9f0 023b
00000200: cf53 9f3c 0fac 2a3d b362 92be 4241 813d
00000210: 0cea 823e 10a0 87be 8d93 bcba 86e4 733d
00000220: 202a 70bc 0fc9 24bd 50c1 833d 68e4 9c3d
00000230: 91c8 99bd e1b2 adbd ded4 983e e2c3 8fbc
00000240: fb89 2cbc 869e a93d b28f 28be 93c3 09bc
00000250: f977 0cbe b0ff bdbc 8045 1a3e d595 6e3d
00000260: 5282 6b3e 46ac debb 4916 8abb 5203 03bd
00000270: afb1 04bd e8d0 313e 6d04 123d 0cbb 8b3d
00000280: d851 20bd 41a5 01be 40da 2b3e 02e5 543e
00000290: 48bf 213d 3cb0 593d 0df1 c7bc 8070 c7bd
000002a0: fcd2 d7bd 4a29 3b3e 4a8a 703e 1efd 95ba
000002b0: 501c 3abc 47a8 853d d350 68be a86f 673e
000002c0: 5255 20be e914 523c 3844 bb3d d3f5 a73b
000002d0: 5766 383d 6d26 c8bd 9c51 55be 7655 843d
000002e0: f09c 913d 6866 c83d 43fe 183e d264 193e
000002f0: f890 dbbd bbd4 19bd bbc4 103e 4673 f5bc
00000300: 8bde df3d c402 0dbe 8b5e 4cbd 5661 89bd
00000310: cd0a 06be c94c 0a3d af84 bb3d deed 083e
00000320: c4fd 5cbe 62c5 913c d0a1 89bd 60f3 bdbd
00000330: 7884 1e3d 1817 383d b599 a2be 685d 123e
00000340: daaf d4bd ed0f bbbd a8f7 103c 92f6 1fbd
00000350: eca2 42be 69f3 393d 09bb 963c 9e72 7ebd
00000360: 432a d8bc e2d4 7abe 0593 b23c c634 62bd
00000370: 923b d53c e64b 7b3e f402 b6bd 5759 3cbe
00000380: fd03 cc3d ccd8 80be d083 843d daeb 653e
00000390: dcfd 2cbc 68ce 983d 5fc0 be3d f79e bfbd
000003a0: 59d9 1e3d 91d5 e8bb 92e2 95bd 9d19 d8ba
000003b0: 0b5f 5dbe 663d 8cbd 4ccb 083d 6f21 a23d
000003c0: a823 643c d394 a5bd 90c6 76bc 16fb 4c3d
000003d0: 86dc 9e3d 208e 41bd e9dd f83d 25c7 813e
000003e0: 3a00 283e 395c 983d adac 80be ce45 2bbd
000003f0: 632b 933d e0a2 86be df63 e53c 812b 8bbd

network.4.bias f4 [4]
-0.009871052 -0.050216395 0.013662501 -0.10515674
00000000: 31ba 21bc b5af 4dbd afd8 5f3c 6b5c d7bd
