dqn/best_dqn_model.pt (torch, 22734 bytes, 6 tensors)

layer1.weight f4 [64, 8]
0	0xc01a53cf	-2.4113653
1	0xbf07e6f1	-0.53086764
2	0xbf9b0536	-1.2110965
3	0xbfad5301	-1.3540956
4	0x3e8be486	0.27322787
5	0x3dff63fc	0.124702424
6	0x3e2dca55	0.16971715
7	0xbe1c40c8	-0.15259087
8	0xc02f7aef	-2.7418783
9	0xbea4f141	-0.32215312
10	0xbf12c41e	-0.573305
11	0x3f52edc3	0.82394046
12	0x3f8d43a0	1.1036263
13	0xbf32d20b	-0.6985175
14	0xbdeb9588	-0.1150313
15	0x3f3b4c0f	0.7316293
16	0x3f606b8d	0.8766411
17	0xc03c55b8	-2.9427319
18	0xbfa092d9	-1.2544814
19	0xbffedb46	-1.9910667
20	0x3f69b35c	0.91289306
21	0xbf24124f	-0.64090437
22	0x3dd0c051	0.101929314
23	0x3cc966d2	0.024585161
24	0x4018a2e9	2.3849432
25	0x3ebb4aea	0.36580592
26	0x3ee5b1b4	0.4486214
27	0xbe7151b1	-0.23566319
28	0xbf3668de	-0.71253765
29	0xbe74b32c	-0.23896474
30	0x3fbd7a72	1.4802992
31	0x3cea27ff	0.028583525
32	0xbe9adf09	-0.30248287
33	0x3f53a947	0.8268017
34	0xbfab0fc2	-1.3364184
35	0xc0054c58	-2.0827847
36	0x3eaf5469	0.34244087
37	0xbe8d16c3	-0.27556428
38	0x3cf8c4d9	0.030367302
39	0xbfe03402	-1.7515872
40	0xbf7fd904	-0.99940515
41	0xbfc8b445	-1.5680014
42	0x3f30153b	0.68782395
43	0xbfd86dcf	-1.6908511
44	0x40225850	2.5366402
45	0x40058f9f	2.086891
46	0x3d9b6298	0.07587165
47	0xbc98fb0e	-0.0186744
48	0x3ec21134	0.3790375
49	0x3e2cb011	0.16864039
50	0xc0040197	-2.062597
51	0xbf354c0d	-0.7081917
52	0x402b2f95	2.6747792
53	0x3f58a1f2	0.8462211
54	0x3d881e86	0.06646447
55	0xbfa182ab	-1.2618002
56	0x400d7488	2.2102375
57	0x3fad242c	1.3526664
58	0xbfc6b5e5	-1.552426
59	0x3f687d1f	0.9081592
60	0xbf87d46b	-1.06117
61	0x3eec6674	0.46171916
62	0xbfdb8da6	-1.7152603
63	0xc0096763	-2.1469352
64	0xbf1351d0	-0.5754671
65	0x3e9e0dfc	0.30870044
66	0xc0572e5e	-3.362205
67	0x4027f24f	2.6241643
68	0x3f91111a	1.1333344
69	0x3f95f21f	1.1714514
70	0x3ee496ac	0.44646204
71	0x3f69f678	0.91391706
72	0xbfed6e88	-1.8549356
73	0x3f871c8c	1.0555587
74	0xbf3c46cc	-0.7354553
75	0x404d5267	3.2081544
76	0xbf07ea8c	-0.53092265
77	0x3ebf90d9	0.37415197
78	0xbfc5b751	-1.5446569
79	0xbcf06003	-0.029342657
80	0x38aed93d	8.33743e-05
81	0xbd846b06	-0.064657256
82	0xc016ce08	-2.3563251
83	0x3e5fa449	0.21840014
84	0xbf041d06	-0.51606786
85	0x3fae5ead	1.3622643
86	0xbe055031	-0.13018872
87	0xbdc85b37	-0.09783023
88	0xbd8b350e	-0.06797229
89	0xbfa0f817	-1.2575711
90	0xbfa3ab63	-1.2786678
91	0xc00eb2e1	-2.229668
92	0x3f03396a	0.5125948
93	0x3fc093a9	1.5045062
94	0xbee852f0	-0.45375776
95	0xbd8c948c	-0.068642706
96	0x3f81823e	1.0117872
97	0xbe962ca6	-0.2933094
98	0x3f7c9d9c	0.9867799
99	0x3e8fe556	0.28104657
100	0xbf895cec	-1.0731483
101	0xbf96de03	-1.1786503
102	0xbf8bb84f	-1.0915622
103	0x3f8050a2	1.0024607
104	0xbd9f0794	-0.07765117
105	0xbecac5e9	-0.39604118
106	0x3fb06188	1.3779764
107	0xc0574fe8	-3.364252
108	0xbeda09ab	-0.425855
109	0x3ee02401	0.4377747
110	0xbee62a8f	-0.44954345
111	0x3cd701e6	0.026246022
112	0x3e935a46	0.2877981
113	0x3d38d1c8	0.045121938
114	0xbff3cae2	-1.904629
115	0x3f663d88	0.8993764
116	0x4010f87b	2.265166
117	0x3e8687f5	0.26275602
118	0xbf7b4955	-0.9815877
119	0x3f133e52	0.5751697
120	0x3fb330bc	1.3999248
121	0x3eacb24f	0.3372979
122	0x3e34795e	0.17624423
123	0x3d3d2277	0.046175446
124	0x3ec2cab1	0.38045266
125	0x3ffd9c36	1.9813297
126	0x3f80cf29	1.006322
127	0xbef7ca34	-0.48396456
128	0xbf09a982	-0.53774273
129	0xbe967578	-0.29386497
130	0xbf420335	-0.75786144
131	0xc0714cb7	-3.7703073
132	0xbf2a0d0d	-0.66426164
133	0x3ee2509e	0.4420213
134	0x3da6e3be	0.08148907
135	0xbcf6f3e4	-0.030145593
136	0xbf829463	-1.0201534
137	0xbf29b317	-0.66288894
138	0xbf8ca8b6	-1.0988986
139	0xbf144748	-0.57921267
140	0x3f99b8bd	1.2009503
141	0x3fd0c822	1.6311076
142	0x3f9ce079	1.2256004
143	0x3e16ef86	0.14739808
144	0x3fdfa351	1.7471715
145	0xbee946c1	-0.45561793
146	0xbf40da4b	-0.7533309
147	0xbf54a827	-0.8306908
148	0xc037e703	-2.8734748
149	0x3fefb76f	1.8727854
150	0x3e46b8cd	0.19406433
151	0xbe71c5cd	-0.23610611
152	0x3eb212d1	0.3477998
153	0xbff640f6	-1.9238575
154	0x3d39054b	0.045171063
155	0x3ff7509d	1.9321476
156	0x3face34f	1.3506869
157	0xbec2daf9	-0.38057688
158	0x3efa931d	0.48940364
159	0x3f9984ee	1.1993692
160	0xbf2772ba	-0.65409434
161	0x3ebed3e4	0.37271035
162	0x401e8248	2.4767017
163	0x3e4fc85e	0.20291278
164	0x3f6bd6b1	0.9212447
165	0xbefff286	-0.49989718
166	0xbf8720c5	-1.0556875
167	0xbe909576	-0.2823903
168	0x3dd6d934	0.10490647
169	0xc017855f	-2.3675153
170	0x3f16f86c	0.5897281
171	0xbfc12b5c	-1.5091357
172	0xbe08f7a6	-0.1337572
173	0x3e69702d	0.22796698
174	0xbfbd1294	-1.4771295
175	0x3ec4ab32	0.38411862
176	0xbebc3ef2	-0.36766773
177	0xc06fa131	-3.7442133
178	0x4018a64c	2.38515
179	0xbfe50c83	-1.7894443
180	0x3f49bc62	0.78803074
181	0xbd810b36	-0.063009664
182	0x3e317ea6	0.17333469
183	0x3e5a4c36	0.21318135
184	0x3f217e55	0.6308339
185	0x3e0f05e9	0.13967098
186	0x3f59996a	0.84999716
187	0x3d878cea	0.06618674
188	0x3f88078c	1.0627303
189	0x3f599cdc	0.85004973
190	0x3e215644	0.15755564
191	0xbf7ed51b	-0.99543923
192	0x3ff8136b	1.9380926
193	0xbe1e7593	-0.15474539
194	0xbfe009de	-1.7503011
195	0xbfe91ad3	-1.8211311
196	0x3f87c4ef	1.0606974
197	0xbdb82d16	-0.089929745
198	0xbfe84a2e	-1.8147638
199	0xbdc18cca	-0.094506815
200	0xbf27a2b6	-0.6548265
201	0x3f289770	0.65856075
202	0x3f245dcc	0.6420562
203	0xbfada1a6	-1.3564956
204	0xbfd9f2b7	-1.7027196
205	0xbf962d11	-1.1732503
206	0xbec7ecd3	-0.3904787
207	0x3e0b53c9	0.1360618
208	0x3d5d9623	0.05409826
209	0xba2ebd46	-0.0006665777
210	0x3ad459a7	0.0016201035
211	0xbdc32646	-0.095287845
212	0xc0a0cd89	-5.0250897
213	0xbdaae187	-0.08343797
214	0xbe84a11c	-0.25904167
215	0x3f694b86	0.91130865
216	0x3ed7ba03	0.42134103
217	0x3ef839bd	0.4848155
218	0x3e48fbe0	0.19627333
219	0x3f6d0557	0.9258627
220	0x3e9182df	0.2842016
221	0x40180565	2.3753293
222	0xbfb3f702	-1.4059756
223	0xbf9fbc3d	-1.2479321
224	0xbef69641	-0.4816151
225	0xbec777fc	-0.38958728
226	0x3f116f50	0.56810474
227	0x3df81ecd	0.1211525
228	0xbfc6991c	-1.5515475
229	0x3e6fdd1b	0.23424189
230	0x3f18ceb8	0.5969043
231	0xbea40929	-0.3203824
232	0xbfc3b18d	-1.5288559
233	0x3fcde924	1.6086774
234	0xbe2db74a	-0.1696445
235	0x3f8073c6	1.0035331
236	0x3f0c59f9	0.5482479
237	0x3fbb6d08	1.4642649
238	0x3ee7f23b	0.45301995
239	0x3f40e8c7	0.7535519
240	0xbf16e846	-0.5894817
241	0xc012cf20	-2.293892
242	0xbf06cf41	-0.52659994
243	0xbf9b9583	-1.2155002
244	0xbee11972	-0.43964726
245	0x3fa82936	1.3137577
246	0xbe1ff4c7	-0.15620719
247	0x3f102ba6	0.563166
248	0x3ed58dce	0.4170975
249	0xbf51407d	-0.81739026
250	0xbe688f36	-0.2271088
251	0xbfa94edb	-1.322719
252	0xc037fec9	-2.8749259
253	0xbf2f92e6	-0.68583524
254	0xc03cd939	-2.9507582
255	0x3f228278	0.6348033

layer1.bias f4 [64]
0	0xbdf8bda2	-0.121455446
1	0xbaea9009	-0.0017895709
2	0x3f2f15a9	0.68392426
3	0x3e823ae4	0.25435555
4	0xbe6befcd	-0.23040695
5	0xbda598bf	-0.08085775
6	0xbf51984c	-0.8187301
7	0xbed0bc33	-0.40768585
8	0xbf428da9	-0.75997406
9	0xbf2e0229	-0.67972046
10	0x3e417656	0.18892798
11	0xbf9d4f50	-1.2289829
12	0x3ed8edd9	0.42368963
13	0x3f0dd437	0.5540194
14	0xbf89e69a	-1.0773499
15	0xbf0dbe07	-0.55368084
16	0x3eacb180	0.33729172
17	0xbfa987ed	-1.3244606
18	0xbf0a4ae8	-0.5402055
19	0x3ed4a730	0.41533804
20	0x3dfb6176	0.122744486
21	0x3f6494ef	0.89289755
22	0xbecd4a23	-0.40095624
23	0xbf297099	-0.66187435
24	0x3c320114	0.010864515
25	0xbf3a2811	-0.72717386
26	0x3dae4e2f	0.08511006
27	0x3f934d66	1.1507995
28	0xbdd9d332	-0.106359854
29	0x3e3d6245	0.18494518
30	0x3f5a7057	0.85327667
31	0x3e9af215	0.3026282
32	0x3ed0cdc1	0.40781978
33	0x3f4f9733	0.81090087
34	0x3dd85a6d	0.10564122
35	0x3ee3c8c7	0.44489118
36	0x3ea49db0	0.32151556
37	0xbed9b218	-0.42518687
38	0x3f352cb1	0.7077132
39	0xbe27335b	-0.16328184
40	0x3da5011f	0.080568545
41	0xbf09451a	-0.53621066
42	0xbf5ae563	-0.85506266
43	0x3ef45645	0.47722068
44	0x3e964126	0.2934658
45	0xbe669ada	-0.22520009
46	0x3fdda271	1.7315198
47	0x3e8492dc	0.25893295
48	0xbf7c014c	-0.9843948
49	0xbe6f50c7	-0.23370658
50	0xbef97b97	-0.48727104
51	0x3ec19efb	0.37816605
52	0xbce92c17	-0.028463406
53	0x3e46ba1f	0.19406937
54	0x3d1963f0	0.037448823
55	0xbe59468b	-0.21218316
56	0xbf7e1206	-0.9924625
57	0x3f1d9c77	0.6156687
58	0x3effc6c3	0.4995633
59	0x3fad0112	1.3515952
60	0x3c20c22c	0.009811919
61	0x3fb31373	1.399031
62	0x3e92cddf	0.28672692
63	0x3fbaafea	1.4584935

layer2.weight f4 [64, 64]
0	0x3babb2ab	0.0052398047
1	0x3fa2b3ee	1.271116
2	0x3f1c9fe5	0.6118148
3	0x3e951eb4	0.29124987
4	0x3eadc25d	0.3393735
5	0xbf011250	-0.5041857
6	0xbf07a381	-0.5298386
7	0xbfaa24d8	-1.3292494
8	0xbf2c1ed9	-0.6723457
9	0xbf2b90ee	-0.6701802
10	0x3e9c636b	0.305446
11	0xbe555dac	-0.20836514
12	0xbf6984c1	-0.9121819
13	0x3ec64eda	0.38732034
14	0xbf60b12f	-0.8777036
15	0xbf0aafca	-0.5417448
16	0x3e9657b2	0.2936378
17	0xbf31b52f	-0.6941709
18	0x40093598	2.143896
19	0xbd86b810	-0.06578076
20	0xbf2a7590	-0.66585636
21	0x3e150194	0.14551383
22	0xbebf7c93	-0.3739973
23	0x400b196e	2.173427
24	0xbf8b95b5	-1.0905062
25	0xbf74e079	-0.9565502
26	0x3ebe8c9c	0.3721665
27	0x3e451937	0.192479
28	0x3ea3fa3a	0.32026845
29	0x3eab1f12	0.33422142
30	0x3f38158a	0.71907866
31	0x3fb3254b	1.3995756
32	0x3cfba9c6	0.030720603
33	0x3eb29736	0.3488099
34	0xbf68cff9	-0.9094234
35	0x3f8df0a6	1.1089065
36	0x3e1fe618	0.15615118
37	0x3e416fd9	0.18890323
38	0x3fd032ac	1.6265464
39	0x3f094da7	0.53634113
40	0x3e3cc9a3	0.18436293
41	0x3e867967	0.26264498
42	0xbfc7836b	-1.558698
43	0x3f3f82e6	0.7480911
44	0x3e08eef3	0.13372402
45	0xbf54374f	-0.82896894
46	0x3fd69c17	1.6766385
47	0x3e61dc48	0.22056687
48	0xbea37128	-0.3192227
49	0xbf8b0dc4	-1.0863576
50	0xbf9d6602	-1.2296755
51	0x3f02e1bb	0.5112569
52	0x3e66217b	0.2247371
53	0xbe6877b7	-0.22701918
54	0xbfa5e9af	-1.296194
55	0xbf5411b2	-0.828395
56	0xbf1f017e	-0.6211165
57	0xbf087009	-0.5329595
58	0x3f458a0a	0.77163756
59	0xbe40bb9f	-0.18821572
60	0x4003d9ef	2.0601766
61	0x3fd08d0f	1.6293048
62	0xbfeadc02	-1.8348391
63	0x3f8f3a67	1.1189698
64	0x3f239c6c	0.63910556
65	0xbf1e48d6	-0.6182989
66	0xbf13b38d	-0.5769585
67	0x3fa17169	1.2612735
68	0xbe82fde5	-0.2558433
69	0xbf70615a	-0.93898547
70	0x3e7b31fd	0.24530788
71	0xbfbfb46a	-1.4976933
72	0xbf383658	-0.7195792
73	0xbfb6101e	-1.4223669
74	0xc011f6ad	-2.280681
75	0xbf9ca604	-1.2238164
76	0x3f4e654f	0.80623335
77	0x3f0471ab	0.51735944
78	0x40611fa5	3.5175564
79	0xbf911204	-1.1333623
80	0x3f4d951a	0.80305636
81	0x3e92c5d6	0.28666562
82	0xbff0bc42	-1.8807452
83	0xbe94fe55	-0.2910029
84	0x3f84f3bd	1.0386883
85	0xbf77d185	-0.96804076
86	0xc02b6a91	-2.6783793
87	0xbffe2480	-1.9854889
88	0x4009c757	2.1527917
89	0xbf4be809	-0.7965093
90	0x40224ea9	2.536051
91	0xc010ba7c	-2.261382
92	0xbebbc8af	-0.36676547
93	0xc06f3c74	-3.7380648
94	0xbff74925	-1.9319197
95	0xbfbb41b5	-1.4629427
96	0x3c9d149b	0.019174865
97	0xbde1615e	-0.110048994
98	0xbf8e697b	-1.112594
99	0xbff1a783	-1.8879246
100	0x3ee3a98d	0.44465294
101	0x3f96d333	1.1783203
102	0xbf061965	-0.523825
103	0x3e5c5cbe	0.21519753
104	0x3f8d19fd	1.1023556
105	0xbfaf3cfd	-1.3690487
106	0xbfb4e62a	-1.413274
107	0xbf848525	-1.0353132
108	0x3f35d896	0.7103361
109	0x3fad2a0e	1.3528459
110	0x3e9cc1a9	0.306165
111	0xbf201016	-0.62524545
112	0x3f8f2d94	1.1185784
113	0xbfa13002	-1.2592776
114	0xbf16f0ff	-0.5896148
115	0x3dc45158	0.095858276
116	0x3fc82eb3	1.5639251
117	0x3f71e1f3	0.94485396
118	0x3fba52b6	1.4556491
119	0x3c834f3f	0.016028998
120	0xbfe9826a	-1.8242924
121	0xc0b25f44	-5.574129
122	0x3f3fe76e	0.7496251
123	0x3f1c2bd2	0.61004364
124	0xc0b014d7	-5.502544
125	0xc094b591	-4.647164
126	0x3ef308fd	0.47467795
127	0xc048b645	-3.1361248
128	0xc01d72d1	-2.4601328
129	0xbe9c537b	-0.3053244
130	0x3e956264	0.2917663
131	0x3e454eec	0.19268388
132	0x3fb99575	1.4498736
133	0xbea818ad	-0.32831326
134	0x3f6142dd	0.8799265
135	0x3ecab975	0.39594617
136	0x3fa93751	1.3220006
137	0xbfdbec52	-1.7181494
138	0x3f24dc1c	0.6439836
139	0xbaa6c086	-0.0012722171
140	0xbf1143dd	-0.56744176
141	0x3f617e34	0.88083196
142	0x3f8e534b	1.1119169
143	0x3e83d69b	0.25749668
144	0x3f5ceeaa	0.8630167
145	0xc014f474	-2.3274202
146	0x3f88f03d	1.0698315
147	0xc0adc4de	-5.4302816
148	0x3db5fd71	0.08886231
149	0xbeec4578	-0.4614675
150	0xc04b2493	-3.1741073
151	0x3f054135	0.52052623
152	0x3efcc9f5	0.4937283
153	0xbfafe6d6	-1.374232
154	0x3e24fbd8	0.16111696
155	0x3f17e344	0.59331155
156	0xbe831a76	-0.25606126
157	0xbf9598a1	-1.1687204
158	0x3dca90d9	0.09890909
159	0xbfe39a54	-1.7781472
160	0xbfc0baca	-1.5057003
161	0xbf2b4a95	-0.6691068
162	0xbf537ff4	-0.82617116
163	0xc04da5c6	-3.213243
164	0x3f104858	0.5636039
165	0x3eb6ffdf	0.3574209
166	0x3fe9c15b	1.8262132
167	0x3eae144b	0.33999857
168	0xbff6bb32	-1.9275877
169	0x3c68fc6a	0.014220336
170	0xbf7d5507	-0.98957866
171	0x3eff7744	0.4989568
172	0x3dc11ce7	0.09429341
173	0x3f7a24db	0.97712487
174	0x3fe0a994	1.7551751
175	0x3edf7fdc	0.43652236
176	0xbee5cef2	-0.4488445
177	0x3ee3b563	0.44474325
178	0x3ed586bd	0.4170436
179	0x3e1c4648	0.15261185
180	0xbf9ffe81	-1.2499543
181	0xbec131ac	-0.3773321
182	0x3f806c9d	1.0033146
183	0xc013073e	-2.297317
184	0x3e3e58f3	0.18588619
185	0xbde76198	-0.112979114
186	0x3e672085	0.22570999
187	0x3f18236c	0.5942905
188	0x3faf3735	1.3688723
189	0x3f93b99b	1.1541017
190	0x3fbe8799	1.4885131
191	0xbf030661	-0.5118161
192	0xbe28ba23	-0.16477256
193	0xbf4ef025	-0.8083518
194	0x3ece3da0	0.4028139
195	0xbf1223a5	-0.5708564
196	0xbf3f0286	-0.74613225
197	0x3ffe79eb	1.9880956
198	0x3f327a79	0.6971813
199	0xbf32eef8	-0.6989589
200	0xbf91f98d	-1.1404282
201	0x40474dd9	3.1141264
202	0x3e1ba520	0.15199709
203	0x3f90e96d	1.1321236
204	0xbe6128df	-0.21988247
205	0xbf977316	-1.1831996
206	0x403f6ca0	2.991005
207	0x3f2437cc	0.6414764
208	0x3d8919a3	0.06694343
209	0xbfab1a57	-1.3367413
210	0xbf8c4326	-1.0957992
211	0x3f2fbf20	0.6865101
212	0xbe984c14	-0.29745543
213	0xbf191a1a	-0.5980545
214	0x3e407f07	0.18798457
215	0x3f10bfdc	0.56542754
216	0x3e67151b	0.22566645
217	0xbfdf1f94	-1.7431512
218	0xbed9e39f	-0.42556474
219	0xbe1e33f2	-0.15449503
220	0xc06aeda2	-3.670754
221	0xbb5f0017	-0.0034027153
222	0xbe932100	-0.28736115
223	0xbeafa1a6	-0.34303015
224	0x3f28930e	0.6584939
225	0x3fa766f3	1.3078293
226	0x3f8c07d1	1.0939885
227	0x3e0343c4	0.1281882
228	0xbcaa474c	-0.02078595
229	0xbe3dfbd0	-0.1855309
230	0xbf4fd1e1	-0.81179625
231	0xbf9716a5	-1.1803786
232	0x3f809a4f	1.0047091
233	0x3e16f5d5	0.14742215
234	0xbf119de4	-0.56881547
235	0xbffe0467	-1.9845093
236	0xbf9686d8	-1.1759901
237	0x3eb0537f	0.34438702
238	0x3f4018bf	0.7503776
239	0x3f07a44d	0.5298508
240	0x4005719e	2.0850596
241	0xc080e2ad	-4.0276704
242	0xbf2f3dac	-0.6845348
243	0xc049f237	-3.1554086
244	0x3fa89aec	1.3172278
245	0xbf1b9aef	-0.60783285
246	0x3e96bfaf	0.29443118
247	0x3f3cc447	0.73736995
248	0x3f83b00f	1.0288104
249	0xbed5ccfb	-0.4175795
250	0x3f0fa07a	0.5610424
251	0x3dfc6385	0.12323669
252	0x3f6be4f5	0.92146236
253	0xbdaeec62	-0.0854118
254	0x3e9de6e9	0.30840233
255	0xc02c867f	-2.695709

layer2.bias f4 [64]
0	0x3f201be4	0.6254256
1	0x3f5f0360	0.87114525
2	0x3f86ea1a	1.0540192
3	0x3f466fae	0.7751416
4	0x3f401629	0.75033814
5	0x3f54ee95	0.8317655
6	0xbe22e1e8	-0.15906489
7	0x3ed367bb	0.41290078
8	0x3f87ac9e	1.0599554
9	0x3ffc465e	1.9708974
10	0xbdc3b50c	-0.09556016
11	0xbf234222	-0.63772786
12	0x3e293510	0.16524148
13	0x3e430434	0.19044572
14	0x3d52e997	0.0514923
15	0xbeffeea7	-0.49986765
16	0x3f667848	0.90027285
17	0x3e82b9e2	0.25532442
18	0xbe22cca9	-0.15898384
19	0x3f67516a	0.90358603
20	0x3fb0aedf	1.3803366
21	0x3cac60fb	0.021042338
22	0xbedf945b	-0.43667874
23	0x3ea36f90	0.31921053
24	0x3f758076	0.9589914
25	0xbe47eb9e	-0.19523475
26	0x3c68b30f	0.014202847
27	0xbf841f4f	-1.0322055
28	0x3fa5a327	1.2940415
29	0x3f00a1dc	0.5024698
30	0x3f361402	0.7112428
31	0x3f53480a	0.825318
32	0x3fa6cd2c	1.3031363
33	0x3f0470a7	0.51734394
34	0x3e22fd12	0.15916851
35	0x3f2e571f	0.68101686
36	0x3d5f633d	0.054538
37	0x3db7f179	0.08981604
38	0x3f74f3af	0.9568433
39	0x3e5781e8	0.21045649
40	0x3f5c0431	0.85943896
41	0x3f1fd631	0.62436205
42	0x3f198ce1	0.5998059
43	0xbcbf6532	-0.023363683
44	0x3e497978	0.19675243
45	0xbe5db08a	-0.21649376
46	0x3f64bc76	0.8935007
47	0xbebeaeac	-0.3724264
48	0x3e688c48	0.22709763
49	0xbd6fb65c	-0.05852352
50	0x3f341d73	0.70357436
51	0x3f2a5258	0.66531897
52	0x3fae4829	1.3615772
53	0x3f5b05e1	0.85555845
54	0x3fc7dac3	1.5613636
55	0x3f37eafc	0.7184293
56	0x3d860874	0.06544581
57	0x3de410c5	0.11136011
58	0xbd93873c	-0.07203528
59	0x3f2eac1b	0.6823136
60	0xbf6919c4	-0.9105494
61	0x3f9be2dd	1.2178608
62	0x3f25bc08	0.6474004
63	0xbe9de5b2	-0.30839306

layer3.weight f4 [4, 64]
0	0x3f076a0d	0.52896196
1	0xbfe4cd36	-1.7875125
2	0x401a91f2	2.4151578
3	0xbf9faf49	-1.2475368
4	0x401b5de4	2.4276056
5	0xc038d10d	-2.8877594
6	0x3d5c35bd	0.053762186
7	0xbe70e234	-0.2352379
8	0x3fa1d06b	1.2641729
9	0x400ea0f7	2.2285745
10	0x3cd9e3f6	0.026597958
11	0x3f39ee9c	0.72629714
12	0x3db09e5a	0.08623953
13	0xbfc978f5	-1.5740038
14	0xbc9b20c1	-0.018936517
15	0x4028eb74	2.639371
16	0xbfcc09b7	-1.5940465
17	0xbca74d49	-0.020422595
18	0xbda39907	-0.07988172
19	0xc00c7f1e	-2.1952586
20	0xc00789c1	-2.1177828
21	0xbf8878ae	-1.0661829
22	0xbfa8a8ab	-1.3176473
23	0x3ffe4e7e	1.9867704
24	0x3f52e001	0.8237305
25	0x40697745	3.6479046
26	0xbfa65fd2	-1.2997992
27	0xbefea0a8	-0.49731946
28	0xbfca5f54	-1.5810342
29	0xbf88c1cc	-1.0684142
30	0x3fd2a4d3	1.645655
31	0xbff22f40	-1.892067
32	0xbfdb1a56	-1.7117412
33	0x3f2f1517	0.68391556
34	0xbfe43181	-1.7827607
35	0xbfd4b2ec	-1.6617103
36	0x3db613a3	0.08890464
37	0xbfbfe07b	-1.4990381
38	0xbf4974fa	-0.7869412
39	0x3f36f177	0.71462196
40	0xbf46581c	-0.77478194
41	0xbf7e38f0	-0.9930563
42	0xbfac9222	-1.3482096
43	0x3de4c75a	0.11170836
44	0xbf8bc0df	-1.0918235
45	0x3fed73c0	1.8550949
46	0xbf388d47	-0.7209057
47	0xbf64de50	-0.8940172
48	0xbfd5c5cf	-1.6700991
49	0x3d102e97	0.03520068
50	0x3f957882	1.1677401
51	0xbfe29fb9	-1.7704993
52	0xbfd06a75	-1.6282488
53	0xbfb6d589	-1.4283916
54	0x40061b65	2.095422
55	0x3ef5fc8e	0.48044246
56	0xbf485ce4	-0.7826674
57	0x4010dc61	2.2634509
58	0xbc16cbaa	-0.009203831
59	0x3e89cb90	0.26913118
60	0x406f3973	3.7378814
61	0x3fcc3068	1.5952272
62	0xc029a987	-2.6509721
63	0xbf8a4eb9	-1.0805274
64	0x3ee9d8fc	0.45673358
65	0xbfcc81c1	-1.5977098
66	0x4029c3b0	2.6525688
67	0xbf43a340	-0.76420975
68	0x4041d811	3.0288126
69	0xbff265dc	-1.8937335
70	0x3d732712	0.059363432
71	0xbfc3ad67	-1.5287293
72	0x3fc640e2	1.5488551
73	0x4010ff30	2.2655754
74	0x3d5edc9d	0.054409612
75	0xbd25190a	-0.040307082
76	0x3f15c341	0.5850106
77	0xbfc1c89a	-1.5139344
78	0xbdb88c83	-0.090111755
79	0x4002ae07	2.0418718
80	0xbfcbc47b	-1.5919336
81	0xc00da26d	-2.2130387
82	0x3d1e3ee8	0.03863421
83	0xc01c0133	-2.4375732
84	0xc0262abd	-2.5963585
85	0xbf81b56f	-1.0133494
86	0xbfd266c7	-1.6437615
87	0x3ff52907	1.9153146
88	0x3f66abb9	0.9010578
89	0x3fc63ac4	1.5486684
90	0xc0107117	-2.2569025
91	0xbf85267d	-1.0402371
92	0xbf8d249b	-1.1026796
93	0x3f48fe58	0.785131
94	0x3f527376	0.8220743
95	0xc004bde0	-2.074089
96	0xbfde5182	-1.7368624
97	0x3eb65cfd	0.3561782
98	0xbfd5fddb	-1.6718096
99	0xc04d57e0	-3.2084885
100	0xbda3447d	-0.079720475
101	0xbff66100	-1.9248352
102	0xbf877924	-1.0583844
103	0x404c6083	3.1933906
104	0xbfeef1eb	-1.8667578
105	0xbfd7c0a0	-1.685566
106	0xbfc12ec3	-1.5092396
107	0xbc946653	-0.018115198
108	0xbfda63c3	-1.7061695
109	0x400173c0	2.0226898
110	0xbfee3965	-1.8611265
111	0xbfcca1bf	-1.5986861
112	0xbf986169	-1.1904727
113	0x3c5b0cc5	0.013369744
114	0x3f96712e	1.175329
115	0xbfae41e6	-1.3613861
116	0xbf59a60d	-0.85019
117	0xbfb82c2f	-1.4388484
118	0x3fb17076	1.3862445
119	0x3fe7a17a	1.8096154
120	0xbc83006d	-0.015991414
121	0x402d713e	2.7100368
122	0x3db4eb76	0.08833973
123	0xbfc1ed51	-1.5150548
124	0x408b14b9	4.3462796
125	0x3f9fb78b	1.2477888
126	0xc00022cd	-2.002124
127	0xbff1d6f0	-1.8893719
128	0x3f12d766	0.5735992
129	0xbf980fbc	-1.1879802
130	0x400d1b24	2.2047815
131	0x3fa0cf88	1.2563334
132	0x4043f859	3.062033
133	0xbfd5d8b5	-1.6706759
134	0xbcd7bcfc	-0.026335232
135	0xc01e1a3d	-2.4703515
136	0xbe108805	-0.14114387
137	0x40251a22	2.57972
138	0xbd4795b3	-0.04872675
139	0x3ffbe833	1.9680237
140	0xbfc0083b	-1.5002512
141	0xc0203cfb	-2.503722
142	0x3d9cd20a	0.07657249
143	0x401c8199	2.44541
144	0xc0057a02	-2.0855718
145	0x3f98a345	1.1924826
146	0x3d8010b6	0.06253187
147	0xbfe06797	-1.7531613
148	0xbfb90129	-1.4453479
149	0xbf93dbc5	-1.1551443
150	0x3ee44626	0.4458477
151	0x3fec8783	1.8478855
152	0x3f80d927	1.006627
153	0x4030659b	2.7562015
154	0xc027dcfa	-2.6228623
155	0xc02c4dab	-2.6922405
156	0xbe40648c	-0.18788356
157	0xbf973f8c	-1.1816268
158	0x3fd0eae7	1.6321687
159	0xc006bc75	-2.1052525
160	0xbff10950	-1.8830967
161	0xbe76f0c4	-0.24115282
162	0xbfa2c321	-1.2715799
163	0xc004b8a5	-2.0737698
164	0xbd5d715b	-0.054063182
165	0xbfdd6f90	-1.7299671
166	0xbf4ef966	-0.808493
167	0x402f913e	2.7432399
168	0xc02ae7cd	-2.670398
169	0xc01a6b86	-2.4128127
170	0xbfe74c3e	-1.8070142
171	0xbc7ce48c	-0.015435349
172	0xbf8b7dc4	-1.0897756
173	0x3ff52dbb	1.9154581
174	0xbff07db2	-1.8788359
175	0xbfdf196e	-1.7429636
176	0xbfab716d	-1.339399
177	0xbd86d57d	-0.065836884
178	0x3f757ae8	0.95890665
179	0xbfd7997d	-1.6843716
180	0xbef101ae	-0.47071594
181	0xc0010ef0	-2.0165367
182	0x3f1ff357	0.6248068
183	0xbf5e9a8c	-0.8695457
184	0x400b6f6a	2.1786752
185	0x40362481	2.845978
186	0xbd53ae0d	-0.05167966
187	0xc08bc1fa	-4.367429
188	0x407a3493	3.9094589
189	0x3fcb178c	1.5866561
190	0xbf5f87b1	-0.87316424
191	0xbf2a2485	-0.66461974
192	0x3f6f60e8	0.9350724
193	0xbfe69574	-1.801436
194	0x401548c5	2.3325665
195	0x3e8651c1	0.26234248
196	0x3dc228ac	0.09480414
197	0xbff15660	-1.8854485
198	0xbce1cfc0	-0.027564883
199	0xbe9eed59	-0.31040457
200	0x3f03ddcd	0.51510316
201	0x401562aa	2.334147
202	0xbd0c35c2	-0.034230955
203	0xbd034511	-0.03204829
204	0xbfc0e6b7	-1.5070409
205	0xbf7387e0	-0.95129204
206	0xbce470ed	-0.027885878
207	0x40061f8f	2.0956762
208	0xbfae1617	-1.3600491
209	0x3ec1c877	0.37848255
210	0x3d9d9d00	0.07695961
211	0xc0044092	-2.066441
212	0xbfff72e2	-1.9956934
213	0xbf94b199	-1.1616699
214	0x3f70d49d	0.9407442
215	0x4009621c	2.1466131
216	0x3f6e1b72	0.9301063
217	0x3f8c7a44	1.0974813
218	0xbf7f27b9	-0.99669987
219	0xbfdbd6a4	-1.7174878
220	0xbfcc7fc2	-1.5976489
221	0xbf9a36a2	-1.2047923
222	0x3f8f41a7	1.119191
223	0xbffca67a	-1.9738305
224	0xc001d5b3	-2.0286682
225	0x3c93299f	0.017964182
226	0xbfa928be	-1.3215559
227	0xc020aaff	-2.5104368
228	0xba858cb5	-0.0010189029
229	0xbf37b034	-0.7175324
230	0xbfe4eaa4	-1.7884107
231	0xbf5ee43a	-0.87066996
232	0xbf5e9f61	-0.8696194
233	0xc00bfa14	-2.1871386
234	0xbf6eb5a9	-0.9324594
235	0xbd5797b6	-0.052634917
236	0xbf9c2375	-1.2198321
237	0x3ff9f5c4	1.9528127
238	0xbfdbbf6c	-1.7167792
239	0x3f041fe1	0.51611143
240	0xbfd1491f	-1.635044
241	0xbdd4f5ef	-0.103984706
242	0x3f804dc9	1.0023738
243	0xbfc53516	-1.5406826
244	0xbfaee0fe	-1.3662412
245	0xbf9e579b	-1.2370485
246	0x40072e66	2.112207
247	0xbf129f7d	-0.5727461
248	0x3eaf38aa	0.3422292
249	0x40106dfe	2.2567134
250	0xbd6c9019	-0.05775461
251	0xbff1c913	-1.8889488
252	0x404b9dcc	3.1815062
253	0x3fb87a92	1.4412405
254	0x3eb34ed1	0.3502107
255	0xbec9653e	-0.39335054

layer3.bias f4 [4]
0	0x3de9c2a3	0.11414077
1	0x3ef4ed60	0.47837353
2	0x3f0248ee	0.5089253
3	0xbf838652	-1.0275366
